classifier_weights.pth (torch, 266523 bytes, 24 tensors)

encoder.conv1.weight f4 [4, 1, 1, 256]
0	0x3b8de8d0	0.004330732
1	0x3c82f090	0.01598385
2	0xbd7603e6	-0.06006231
3	0xbcd840c8	-0.026398078
4	0x3d351a9c	0.04421483
5	0xbcf54b34	-0.029943086
6	0x3d72db9c	0.059291467
7	0x3c351eb0	0.01105468
8	0x3d59813e	0.05310177
9	0xbc9b9b84	-0.018995054
10	0x3cc8d654	0.024516262
11	0x3d61e13e	0.05514645
12	0x3d32c35e	0.043643348
13	0x3c281e18	0.010261081
14	0xbc81dd3c	-0.015852563
15	0xbd4b8c70	-0.04969448
16	0x3cdded20	0.02709061
17	0x3d53d05c	0.05171238
18	0xbd2ec79a	-0.042670824
19	0xbd325c12	-0.043544836
20	0x3d020ed8	0.031752437
21	0x3c9869cc	0.018605135
22	0xbd0e28f6	-0.034707032
23	0xbd6400a8	-0.05566469
24	0x3c213bf8	0.009840958
25	0x3d7c402c	0.061584637
26	0x3adabc80	0.0016688257
27	0xbb7af9a0	-0.003829576
28	0x3ca371a8	0.019951656
29	0x3d3491be	0.044084303
30	0x3c313350	0.0108154565
31	0x3c39b950	0.011335686
32	0x3d3c55ca	0.045980252
33	0xbd251cac	-0.040310547
34	0x3c87ad00	0.016561985
35	0xbd0437b6	-0.032279693
36	0xbc71c288	-0.0147558525
37	0xbc2294d8	-0.009923182
38	0xbcf8283c	-0.030292623
39	0xbc73c7d8	-0.014879189
40	0xbd65e540	-0.056126833
41	0xbcb8fc2c	-0.022581182
42	0xbd006c28	-0.031353146
43	0xbd19db16	-0.037562452
44	0x3d3bf6a6	0.04588952
45	0x3c9576d8	0.018245146
46	0xbcbe91e4	-0.023262925
47	0xbc6a6a30	-0.014307544
48	0x3d4d0cf6	0.05006119
49	0x3d57166c	0.052511618
50	0x3d7e4512	0.06207759
51	0xbcca3488	-0.024683252
52	0x3d6c25d0	0.05765325
53	0x3cc1c348	0.023652688
54	0x3c83967c	0.016062967
55	0x3d663e8e	0.056212
56	0x3d29d160	0.04145944
57	0xbd7d7b82	-0.061885364
58	0x3d0bde06	0.034147285
59	0x3d317772	0.043326803
60	0xbd552a14	-0.052042082
61	0xbc422e90	-0.011851922
62	0xbd66c0a6	-0.056336068
63	0x3ccc3c68	0.024931148
64	0x3d787dac	0.060666725
65	0xbceef508	-0.029169574
66	0x3d03a01e	0.03213512
67	0x3a8fb340	0.0010963455
68	0x3b34ae20	0.0027569607
69	0xbce2987c	-0.0276606
70	0x3d6e6b2c	0.058207676
71	0xbd11a308	-0.03555587
72	0xbc665230	-0.014057681
73	0x3d31cb9c	0.043407068
74	0xbabf9540	-0.0014616624
75	0xbd60d388	-0.054889232
76	0x3cb26d1c	0.021780543
77	0x3d465f9c	0.048431024
78	0xbd08ebbc	-0.03342794
79	0xbd329374	-0.043597654
80	0xbd38d4ee	-0.04512494
81	0xbc998c04	-0.018743522
82	0x3b8d6270	0.004314713
83	0xbd6293cc	-0.05531673
84	0xbcc1fafc	-0.023679249
85	0xbaea9800	-0.0017898083
86	0x3c408be8	0.011752106
87	0xbcb45f88	-0.02201821
88	0x3c19ec08	0.009394653
89	0x3c5547c0	0.013017595
90	0x3c1b1970	0.009466514
91	0x3c5726c0	0.013131797
92	0x3cf93e2c	0.030425154
93	0x3d3e027e	0.046389095
94	0x3d356282	0.044283397
95	0x3d60a62a	0.054845966
96	0x3d59e33a	0.053195216
97	0x3d48a826	0.048988484
98	0x3d33ad96	0.043866716
99	0xbc263038	-0.010143332
100	0xbc5f4458	-0.013627134
101	0xbbdec620	-0.0067985207
102	0xbcf5038c	-0.029908918
103	0xbd1813f4	-0.037128404
104	0x3c7ec0e0	0.015548915
105	0x3c9ba400	0.0189991
106	0x3d5e37c4	0.0542524
107	0x3ba373c0	0.0049881637
108	0x3d4bf6e8	0.049796015
109	0x3c1280b0	0.008941814
110	0xbc040200	-0.008057117
111	0x3d6f922c	0.05848901
112	0x3cf3bae8	0.02975221
113	0xbd5c17f2	-0.053733774
114	0x3d4c9242	0.04994417
115	0xbbad43f0	-0.00528764
116	0xbd62f866	-0.055412672
117	0x3bd15220	0.006387964
118	0xbd6307d0	-0.055427372
119	0xbc67a450	-0.014138296
120	0xbd43c4ae	-0.04779499
121	0x3d2a3b2e	0.041560344
122	0xbca54b68	-0.020177558
123	0x3ca0a390	0.019609243
124	0xbcc64cf4	-0.024206616
125	0xbd6acf2e	-0.05732649
126	0x3d7c11d2	0.061540432
127	0xbd11bd5a	-0.03558097
128	0xba525180	-0.00080230087
129	0xbbf8d040	-0.0075931847
130	0xbca208dc	-0.019779615
131	0xbc504ba8	-0.01271335
132	0x3d36f122	0.044663556
133	0xbd0a2900	-0.033730507
134	0x3d54844e	0.051883988
135	0xbd124e50	-0.035719216
136	0x3b9801a0	0.0046388656
137	0x3cbe30c0	0.023216605
138	0x3d5c35e4	0.05376233
139	0xbd16b3a4	-0.036792412
140	0x3aad5d80	0.0013226718
141	0xbc6c75d8	-0.014432393
142	0x3d7e87b2	0.062141128
143	0x3cf03994	0.02932433
144	0xbd79049e	-0.06079542
145	0x3d1bf038	0.038070887
146	0xbd2b3d28	-0.04180637
147	0xbd6648cc	-0.05622177
148	0xbc472d60	-0.012156814
149	0x3d7a4cea	0.061108507
150	0xbd289c9a	-0.041164972
151	0x3c77f578	0.015134208
152	0xbc84a674	-0.016192652
153	0x3ced01b4	0.028931476
154	0xbc45ccb0	-0.012072727
155	0xbd7c4d5e	-0.06159722
156	0xbc014ae8	-0.007891394
157	0x3d06dafa	0.032923676
158	0x3d49934c	0.04921274
159	0x3d2714ee	0.040791444
160	0x3c80277c	0.015643828
161	0x3d621640	0.055197
162	0xbc47d7d0	-0.01219745
163	0xbcc8dcc0	-0.024519324
164	0xbcec768c	-0.028865121
165	0x3d055548	0.032552034
166	0xbcd49e00	-0.025954247
167	0xbca3a6c4	-0.019976981
168	0xbd47b2c8	-0.048754483
169	0xbd3afbc4	-0.04565026
170	0xbd0098ba	-0.03139565
171	0x3d7f0198	0.06225738
172	0xbcb49ae0	-0.022046506
173	0x3d575b56	0.05257734
174	0xbd576dc6	-0.052594922
175	0x3b85d820	0.004084602
176	0x3d44c858	0.048042625
177	0x3d433508	0.047657996
178	0x3d613aa6	0.054987572
179	0x3d0f323a	0.03496001
180	0xbd737118	-0.059434026
181	0xbc0ad7a8	-0.008474268
182	0xbca3aad0	-0.01997891
183	0x3d36cee0	0.044630885
184	0xbb8892e0	-0.0041678995
185	0x3d7cd9dc	0.061731204
186	0x3d5a7f30	0.05334395
187	0x3c9d9ad0	0.01923886
188	0xbc2fafe8	-0.010723092
189	0xbcaa3b1c	-0.020780139
190	0x39d40e00	0.00040446222
191	0xbbc3f990	-0.005980678
192	0x3cb48d98	0.022040173
193	0x3ca6a1e8	0.020340875
194	0x3b94d630	0.0045421347
195	0xbd1dddf2	-0.03854174
196	0x3d47f2c4	0.048815504
197	0x3c544a18	0.012957118
198	0xbd4536e2	-0.048148043
199	0x3c6458e8	0.0139372125
200	0x3c493dc0	0.012282789
201	0x3d71bcaa	0.059017815
202	0xbcb86968	-0.0225112
203	0x3b19d220	0.0023471192
204	0xbd7add7e	-0.061246388
205	0x3d5ca286	0.053865932
206	0x3c81b690	0.015834123
207	0x3c91cef0	0.01779887
208	0xbd2dc458	-0.042423576
209	0x3d731ed8	0.059355587
210	0x39ee8f00	0.0004550144
211	0x3cf298dc	0.029613905
212	0xbd3598a6	-0.04433503
213	0xbab89640	-0.0014082864
214	0xbd06086a	-0.032722868
215	0x3bcb2700	0.0061997175
216	0x3d452c8c	0.048138186
217	0xbc9689b0	-0.018376201
218	0x3d69e7ae	0.057105713
219	0xbccb9b64	-0.02485437
220	0x3c590038	0.013244681
221	0xbcff4c68	-0.031164363
222	0x3c096ab8	0.00838726
223	0xbd10b49c	-0.035328493
224	0xbd0e901c	-0.034805402
225	0x3c073b00	0.008253813
226	0xbc9ea3cc	-0.019365214
227	0x3c41aed0	0.011821464
228	0x3d3b4b4e	0.045726113
229	0xbd265a44	-0.040613428
230	0x3ca3f1f4	0.020012833
231	0x3c0db4d8	0.008649074
232	0x3d212702	0.03934384
233	0xbcb86ec0	-0.022513747
234	0xbca021f8	-0.019547448
235	0x3d0e3110	0.03471476
236	0xbbb2a620	-0.0054519325
237	0xbd34d3b8	-0.044147223
238	0x3c10bef0	0.008834586
239	0xbd4c744e	-0.049915604
240	0x3cef7214	0.029229201
241	0x3c05cb10	0.00816609
242	0x3d1d5572	0.038411565
243	0xbd6bbc78	-0.057552785
244	0xbce35460	-0.027750194
245	0x3d55fdb8	0.05224392
246	0x3c8a7ff0	0.016906708
247	0xbd41d6be	-0.047323935
248	0x3cfd63b8	0.030931339
249	0x3d1b1b9a	0.03786812
250	0x3c5c0028	0.013427772
251	0xbd1f3590	-0.03886944
252	0x3c8de62c	0.017321669
253	0x3cd0b1e4	0.02547545
254	0xbd36e282	-0.04464961
255	0xbd5fb560	-0.054616332

encoder.batchnorm1.weight f4 [4]
0	0x3f800000	1.0
1	0x3f800000	1.0
2	0x3f800000	1.0
3	0x3f800000	1.0

encoder.batchnorm1.bias f4 [4]
0	0x00000000	0.0
1	0x00000000	0.0
2	0x00000000	0.0
3	0x00000000	0.0

encoder.batchnorm1.running_mean f4 [4]
0	0xbd34afe0	-0.04411304
1	0x3c6f0f1f	0.0145910075
2	0xbd3c0830	-0.045906246
3	0xbcfa25d3	-0.030535614

encoder.batchnorm1.running_var f4 [4]
0	0x44d4d32b	1702.599
1	0x44dfe1bf	1791.0546
2	0x44ef6668	1915.2002
3	0x445837f1	864.8741

encoder.depthwise_conv.weight f4 [8, 1, 1, 32]
0	0xbdda1641	-0.10648776
1	0xbcf083f1	-0.02935979
2	0xbe0ff96c	-0.1405999
3	0x3d95bd49	0.07311494
4	0x3d492f45	0.049117345
5	0xbd49172f	-0.049094375
6	0xbdd6e0dd	-0.10492108
7	0x3e159e10	0.14611077
8	0xbdfa3a40	-0.122181416
9	0x3de234dd	0.11045239
10	0xbe31f761	-0.17379524
11	0x3e280503	0.16408162
12	0x3db95ad7	0.090505295
13	0x3cd9d095	0.026588717
14	0xbd13620c	-0.035982177
15	0x3ddef159	0.10885877
16	0xbd972b34	-0.07381287
17	0x3de26a9a	0.11055489
18	0xbc19ef53	-0.009395438
19	0xbe2a7429	-0.16645874
20	0xbd2f2e1a	-0.042768575
21	0xbda27512	-0.07932486
22	0xbc34f05b	-0.011043633
23	0xbd9ad465	-0.07560042
24	0xbe2894cf	-0.16463016
25	0x3dfbeae6	0.12300663
26	0x3de093ec	0.10965714
27	0xbe12a62a	-0.14321199
28	0x3e00bc4d	0.12571831
29	0xbc585894	-0.013204712
30	0x3e1a51b5	0.15070231
31	0x3d90f48b	0.07077893
32	0x3e1b6793	0.15176229
33	0x3cef46f0	0.02920863
34	0x3dd836b4	0.10557309
35	0xbdda1149	-0.10647828
36	0xbd7d260c	-0.061803862
37	0x3dcc7159	0.09982557
38	0x3e16f832	0.14743116
39	0x3e1dedf1	0.15422799
40	0x3de43b29	0.111440964
41	0x3c4e50fd	0.012592551
42	0xbdd14526	-0.10218267
43	0x3e0a5a6d	0.13511057
44	0xbdc2a47a	-0.09504028
45	0x3e2ae37b	0.1668834
46	0x3e2f3684	0.1711064
47	0xbd81f8ad	-0.06346259
48	0x3e01548a	0.12629905
49	0xbe111aa1	-0.14170314
50	0x3d728bf4	0.0592155
51	0x3dae2931	0.085039504
52	0x3dc2eb74	0.09517565
53	0xbddf0c08	-0.10890967
54	0xbd7bd8f5	-0.061486203
55	0x3cefd19e	0.029274758
56	0xbc9d66d5	-0.019214073
57	0x3e019f33	0.12658386
58	0xbdfe7543	-0.1242471
59	0x3c023c43	0.007948938
60	0x3e17833b	0.14796154
61	0xbd7ec3f3	-0.06219859
62	0xbe1053c2	-0.14094451
63	0xbb30f90a	-0.0027003908
64	0xbbd04106	-0.0063554076
65	0x3d876334	0.06610718
66	0x3d3bdb4e	0.045863442
67	0x3e0a1fe1	0.13488723
68	0x3e2b7912	0.16745403
69	0xbdf0f774	-0.11765948
70	0x3dd7fecf	0.10546648
71	0x3d56077e	0.05225324
72	0x3e1fc1b2	0.15601233
73	0xbdbb6496	-0.091500446
74	0x3dcdae00	0.100429535
75	0x3e205357	0.15656792
76	0x3e341606	0.17586526
77	0xbdb3f2a0	-0.087865114
78	0xbdf863a9	-0.12128384
79	0xbd35d6a1	-0.04439414
80	0x3def3e9b	0.11681863
81	0x3e25ae5d	0.16179796
82	0xbdfd19e2	-0.123584524
83	0x3dc7c6b1	0.09754694
84	0x3d868808	0.06568915
85	0x3c90ce13	0.017676389
86	0x3bd4e4f6	0.006497021
87	0xbcd2e8f3	-0.025745844
88	0x3e23b29a	0.159861
89	0xbd2dc652	-0.04242546
90	0xbd0aee30	-0.03391856
91	0xbc2451b1	-0.010029242
92	0x3d982fa3	0.07430961
93	0xbdfe8dae	-0.12429367
94	0x3e2305d5	0.15920193
95	0xbe331bf2	-0.17491129
96	0x3cb209fb	0.021733275
97	0x3d881e66	0.06646423
98	0x3dae56e4	0.08512667
99	0xbde639de	-0.11241506
100	0x3e0afec7	0.13573752
101	0xbd65f6ba	-0.0561435
102	0x3de4bf64	0.11169317
103	0xbdb5a390	-0.08869088
104	0xbd3f4287	-0.046694305
105	0xbdd442b1	-0.10364283
106	0xbd9410e4	-0.07229784
107	0x3b4341bb	0.0029793817
108	0xbd060056	-0.032715164
109	0xbda28dd2	-0.07937206
110	0xbe31dbe0	-0.17369032
111	0x3d57c79f	0.052680608
112	0xbc84aac8	-0.016194716
113	0xbe0682d1	-0.1313584
114	0x3e2d8985	0.16946991
115	0xbd8a2b67	-0.067465596
116	0x3e1e449e	0.15455863
117	0xbe1b19f9	-0.15146627
118	0xbe1f7956	-0.1557363
119	0x3d692255	0.056917507
120	0x3d92192d	0.07133708
121	0x3d7b6876	0.06137892
122	0x3e0539ac	0.13010281
123	0x3e153e14	0.14574462
124	0x3d123669	0.03569642
125	0x3c119b22	0.008887084
126	0xbd3175dd	-0.043325294
127	0xbe20bdd4	-0.15697414
128	0xbd356d01	-0.044293407
129	0xbe260afd	-0.16215129
130	0x3df50aec	0.11964974
131	0xbd56931a	-0.05238638
132	0x3d9c5c71	0.07634819
133	0x3e1c80c2	0.15283492
134	0x3e207ebb	0.15673344
135	0xbc27c933	-0.010240841
136	0x3c59df42	0.013297858
137	0xbe2918d7	-0.16513382
138	0x3d807934	0.06273118
139	0x3dfc9e29	0.12334854
140	0x3e1e998c	0.15488261
141	0x3d91b1d4	0.07113996
142	0x3d9fdddf	0.078059904
143	0x3d785f1b	0.060637575
144	0xbd2a1def	-0.041532453
145	0x3dd83f9f	0.1055901
146	0xbde61bc3	-0.11235764
147	0xbe0c2262	-0.13684991
148	0x3d62c9b5	0.055368144
149	0xbe0ee1ac	-0.13953274
150	0xbdea405b	-0.11438056
151	0x3c895caf	0.016767828
152	0x3d89122a	0.06692918
153	0xbdd22c5d	-0.10262368
154	0xbd67637c	-0.05649136
155	0x3dd54737	0.10413974
156	0xbe29c692	-0.16579655
157	0xbd9bb569	-0.076029606
158	0xbe02bdd1	-0.12767722
159	0x3b8b647f	0.0042539234
160	0xbcfb46f6	-0.030673485
161	0xbe19c721	-0.15017368
162	0x3d7f3e42	0.062315233
163	0x3d95d7d6	0.07316558
164	0x3d94bc60	0.07262492
165	0x3e06aaeb	0.13151138
166	0xbc29bdbe	-0.0103601795
167	0x3e00f5a8	0.1259371
168	0xbd7e19c7	-0.062036302
169	0x3e003043	0.1251841
170	0xbdc097ed	-0.094039775
171	0xbda349e3	-0.07973077
172	0x3dbd344b	0.0923849
173	0xbda2b234	-0.07944146
174	0xbdf6df01	-0.12054253
175	0x3dc8fc15	0.09813706
176	0xbd3a652e	-0.04550665
177	0xbd846ae0	-0.06465697
178	0x3e0bce85	0.13653
179	0xbd8f8640	-0.07008028
180	0x3c962c34	0.018331625
181	0x3df83df3	0.12121191
182	0x3d60e1ea	0.05490295
183	0x3e228687	0.1587163
184	0xbdb0005e	-0.0859382
185	0x3c99bd2a	0.018766958
186	0x3d6111cd	0.054948617
187	0xbca4a4f5	-0.020098189
188	0xbe24cd17	-0.1609386
189	0xbde10a77	-0.10988324
190	0xbe227ed8	-0.158687
191	0xbd2aae40	-0.041670084
192	0xbe1cb084	-0.1530171
193	0x3d8dda54	0.069264084
194	0x3e02b1c3	0.12763123
195	0x3d666585	0.05624916
196	0xbe229bf0	-0.15879798
197	0x3dc8127c	0.097691506
198	0xbe12ad63	-0.14323954
199	0x3c186b7a	0.009302968
200	0xbdd876b0	-0.10569513
201	0xbc9373ca	-0.017999548
202	0x3dfeb210	0.124363065
203	0x3e20c76a	0.1570107
204	0x3dc19589	0.0945235
205	0x3dd7597e	0.10515116
206	0xbdbd53c0	-0.0924449
207	0x3bb43f7d	0.0055007325
208	0x3e272c99	0.16325606
209	0x3c92cefd	0.017920965
210	0x3c05c41f	0.008164435
211	0xbd8c4b47	-0.068502955
212	0xbdc37861	-0.09544445
213	0x3e342003	0.17590337
214	0xbe027340	-0.12739277
215	0xbd056ace	-0.03257256
216	0xbe0eedfc	-0.13957971
217	0x3d32821a	0.043581106
218	0xbd920dbb	-0.07131525
219	0xbded1ead	-0.115781166
220	0x3d60f34e	0.054919533
221	0xbab3c82a	-0.001371627
222	0x3d8c406b	0.06848224
223	0xbd94866a	-0.072522
224	0x3e20f5b0	0.15718722
225	0xbb45cadb	-0.0030180726
226	0x3dfe10b2	0.12405528
227	0x3e0a5cd0	0.13511968
228	0x3d31a872	0.043373533
229	0x3e124d16	0.14287218
230	0xbdd6f55c	-0.10496017
231	0xbbdd07bf	-0.006745308
232	0x3df3a6c0	0.118970394
233	0xbd87c797	-0.066298656
234	0x3e17eb6e	0.14835903
235	0xbddb6d01	-0.1071415
236	0xbdc5da20	-0.09660745
237	0x3dff778e	0.12473975
238	0xbd743234	-0.05961819
239	0xbbf6b2e3	-0.007528649
240	0x3e26555b	0.16243498
241	0xbc302b5c	-0.010752525
242	0x3e343155	0.17596944
243	0xbb9d52db	-0.004801137
244	0x3dc1aecd	0.09457169
245	0xbd3ad514	-0.045613363
246	0x3de363e7	0.11103039
247	0xbd6fcc6d	-0.058544565
248	0x3d49f389	0.04930452
249	0xbd97b04b	-0.07406672
250	0xbcabff95	-0.020995894
251	0xbe1740a6	-0.14770755
252	0x3e31b3be	0.17353722
253	0xbe065ddc	-0.13121742
254	0x3daf0769	0.08546335
255	0x3e17a9f8	0.14810932

encoder.batchnorm2.weight f4 [8]
0	0x3f800000	1.0
1	0x3f800000	1.0
2	0x3f800000	1.0
3	0x3f800000	1.0
4	0x3f800000	1.0
5	0x3f800000	1.0
6	0x3f800000	1.0
7	0x3f800000	1.0

encoder.batchnorm2.bias f4 [8]
0	0x00000000	0.0
1	0x00000000	0.0
2	0x00000000	0.0
3	0x00000000	0.0
4	0x00000000	0.0
5	0x00000000	0.0
6	0x00000000	0.0
7	0x00000000	0.0

encoder.batchnorm2.running_mean f4 [8]
0	0xb92f7929	-0.00016734436
1	0x383ee1d7	4.550986e-05
2	0xb9c49bba	-0.00037500059
3	0xb7bbccc1	-2.2387483e-05
4	0xba0abfec	-0.0005292881
5	0xb985d7a4	-0.00025528402
6	0xb90214f2	-0.00012405569
7	0xba1fe6f6	-0.00060997845

encoder.batchnorm2.running_var f4 [8]
0	0x3e14306a	0.14471593
1	0x3f205b95	0.62639743
2	0x3f5d8714	0.8653424
3	0x3dffa47d	0.124825455
4	0x3e32bb4e	0.17454264
5	0x3da3366f	0.07969367
6	0x3e4ae3ee	0.19813511
7	0x3f0b43f2	0.5440055

encoder.sep_conv.weight f4 [16, 8, 1, 32]
0	0xbd6e1240	-0.058122873
1	0xbd65a502	-0.056065567
2	0xbac9bb80	-0.0015390962
3	0x3c03a260	0.008034319
4	0x3d1f3b12	0.038874693
5	0x3d6fd1d2	0.05854971
6	0x3d3d42fe	0.046206467
7	0xbcc2bdd8	-0.023772165
8	0x3cd7ceb8	0.026343688
9	0xbd6a803c	-0.0572512
10	0xbd4deb1a	-0.05027304
11	0xbd106f52	-0.035262413
12	0xbd5c4ba6	-0.05378308
13	0xbc6ce458	-0.014458738
14	0x3d53f83e	0.051750414
15	0xbd412ac6	-0.047159933
16	0xbcc79548	-0.024363175
17	0xbd5b13bc	-0.053485617
18	0xbc7e46b0	-0.015519783
19	0xbd780300	-0.060549736
20	0xbd7d04c0	-0.061772108
21	0xbc971060	-0.018440425
22	0x3b05a960	0.0020395145
23	0xbce0adac	-0.027426563
24	0x3cc63888	0.024196878
25	0xbd6f1f3c	-0.058379397
26	0xbd37edf4	-0.044904664
27	0x3c8bf43c	0.017084233
28	0xbd4ce66a	-0.050024427
29	0x3d65868c	0.056036517
30	0xbce19a00	-0.027539253
31	0xbd0fa936	-0.03507348
32	0xbd20d85a	-0.03926883
33	0x3ceb296c	0.028706275
34	0x3d798004	0.0609131
35	0xbd728eee	-0.05921834
36	0xbd538994	-0.051644877
37	0xbc1acb40	-0.009447873
38	0x3d369e62	0.04458464
39	0xbd12627e	-0.03573846
40	0x3c32cc70	0.0109129995
41	0xbc832b8c	-0.016011976
42	0xbbb9a1a0	-0.005665019
43	0x3d30cd9e	0.04316484
44	0x3d6920fa	0.056916215
45	0xbbcd6ac0	-0.006268829
46	0xbb57bba0	-0.003291823
47	0xbbdf3b80	-0.006812513
48	0x3d34eb0e	0.044169478
49	0x3b728400	0.0037004948
50	0xbbdd6920	-0.0067569166
51	0xbc497d70	-0.012297973
52	0x3b7194a0	0.003686227
53	0xbc8b8ba0	-0.017034352
54	0x3c583b28	0.013197698
55	0x3cfafb10	0.030637294
56	0xbcb22c94	-0.021749772
57	0x3c30a440	0.010781348
58	0x3cb7c32c	0.022431932
59	0x3d4d94c8	0.050190717
60	0xbc07cba0	-0.008288294
61	0x3bec0660	0.0072029084
62	0xba11b280	-0.00055579096
63	0xbcd9e060	-0.026596248
64	0xbd00772c	-0.03136365
65	0x3bcada60	0.006190583
66	0x3d13e632	0.036108203
67	0xbd0c922e	-0.034319095
68	0x3d43fe98	0.04785022
69	0x3c394a08	0.011309154
70	0xbd386d6c	-0.045026228
71	0xbce182b8	-0.027528152
72	0xbd32ade2	-0.04362286
73	0xbcdcfcbc	-0.026975982
74	0x3d464640	0.04840684
75	0xbd39c938	-0.045357913
76	0xbcc8c6d8	-0.024508879
77	0x3cbfb25c	0.023400478
78	0xbd24d790	-0.04024464
79	0xbd77fd12	-0.06054408
80	0xbd6f7f7a	-0.05847118
81	0xbca49970	-0.020092696
82	0xbd4a19be	-0.049340956
83	0x3d2a6cb0	0.04160756
84	0xbd0d3178	-0.034471005
85	0xbc137148	-0.008999176
86	0xbc59d748	-0.013295956
87	0xbd26b3ce	-0.04069882
88	0x3c6aea88	0.014338143
89	0xbd5cc134	-0.05389519
90	0x3d679ff8	0.056549042
91	0x3b3a82e0	0.0028459355
92	0xbcb66b98	-0.022268102
93	0xbd041726	-0.03224864
94	0x3c7e7928	0.015531816
95	0x3cb376e8	0.021907285
96	0xbd6c40f4	-0.05767913
97	0xbd0ffbb6	-0.03515216
98	0xbcce4474	-0.025179125
99	0x3bfcaba0	0.007710889
100	0xbd425214	-0.047441557
101	0x3d2d6826	0.04233565
102	0xbceaff90	-0.028686315
103	0xbcf3f410	-0.029779464
104	0xbba2f520	-0.004973069
105	0x3d545eb6	0.051848136
106	0xbccbb760	-0.024867713
107	0x3c7b68d8	0.015344821
108	0x3d64a4c4	0.055821195
109	0x3ce434f8	0.027857289
110	0x3d319eb0	0.043364227
111	0xbd772012	-0.06033332
112	0xbd51eb92	-0.051250048
113	0x3ca145c8	0.019686595
114	0xbc59aea0	-0.013286263
115	0xbd7e4eda	-0.062086917
116	0xbd3a1322	-0.045428403
117	0x3d6eeb30	0.05832976
118	0xbd6206d2	-0.055182286
119	0xbb2ae6c0	-0.002607748
120	0x3d67f1e2	0.05662716
121	0xbd497a1e	-0.049188726
122	0xbd747d4c	-0.059689805
123	0x3cef0250	0.029175907
124	0x3d57b452	0.0526622
125	0x3d6fbb10	0.058528006
126	0x3cb26acc	0.02177944
127	0x3cad8bd4	0.02118484
128	0xbd57513e	-0.052567713
129	0xbb7de2a0	-0.0038739815
130	0x3d5d0d48	0.053967744
131	0x3c9606dc	0.018313818
132	0x3cc89848	0.024486676
133	0x3ac47cc0	0.0014990792
134	0xbcfab898	-0.0306056
135	0xbd051c8c	-0.032497928
136	0x3d1447c2	0.036201246
137	0xbd358d58	-0.04432425
138	0xbd72130c	-0.059100196
139	0xbd380a40	-0.04493165
140	0xbcd6bc5c	-0.026212864
141	0xbc8cf30c	-0.017205738
142	0xbd0532c8	-0.032519132
143	0x3d447fb4	0.04797335
144	0xbbcc2550	-0.006230034
145	0x3d40c7c4	0.04706551
146	0xbd652ac2	-0.05594898
147	0x3d4b70d2	0.04966814
148	0x3cb3b308	0.021935955
149	0xbca20f20	-0.019782603
150	0x3c02ac48	0.007975645
151	0xbcf1fdf0	-0.029540032
152	0x3d7a5ba4	0.06112255
153	0x3c8aa6a4	0.016925164
154	0x3cfb1924	0.030651636
155	0x3cc1c5dc	0.023653917
156	0x3992f500	0.0002802983
157	0xbc90ada4	-0.017660923
158	0x3cf67edc	0.030089788
159	0xbcc5dad0	-0.02415219
160	0x3ca77fac	0.02044662
161	0xbd471d22	-0.048611768
162	0x3b5a6720	0.0033325627
163	0xbcaf7340	-0.02141726
164	0x3c94236c	0.018083297
165	0xbd73d06e	-0.059524946
166	0x3d2e8a3e	0.042612307
167	0x3bf4d9f0	0.0074722692
168	0x3c889970	0.016674727
169	0xbd4458ea	-0.047936358
170	0xbd33a898	-0.043861955
171	0xbba48940	-0.0050212443
172	0x3d66e9d8	0.056375355
173	0xbd2bff14	-0.04199131
174	0x3d0bfefe	0.034178726
175	0x3ca84380	0.020539999
176	0x3d69fbc0	0.057124853
177	0x3d28593c	0.041100726
178	0x3d37c406	0.044864677
179	0x3c85435c	0.016267471
180	0x3caa8ab8	0.0208181
181	0xbd63c666	-0.05560913
182	0xbd67a5c0	-0.056554556
183	0x3c1823d8	0.00928589
184	0xbd6ceb10	-0.05784136
185	0x3ba685f0	0.0050818846
186	0x3b2eca20	0.002667077
187	0x3d76fe08	0.060300857
188	0x3d236cc6	0.039898656
189	0x3cd59390	0.02607134
190	0x3d7ff592	0.062490053
191	0xbd5a1188	-0.053239375
192	0x3d16cb24	0.036814824
193	0x3d511cb2	0.051052757
194	0x3caf8708	0.021426693
195	0xbd186e06	-0.0372143
196	0x3c44ec58	0.012019239
197	0x3d0269ee	0.031839304
198	0xbc2bebb8	-0.010493211
199	0x3d480880	0.04883623
200	0x3cbf80fc	0.023376934
201	0xbd15ecba	-0.036602713
202	0x3d31024e	0.04321509
203	0xbcd48f40	-0.025947213
204	0xbd3b561e	-0.045736425
205	0xbd399304	-0.04530622
206	0x3d466c76	0.04844328
207	0x3d6876a4	0.05675377
208	0xbd40b59c	-0.047048196
209	0xbce36378	-0.027757391
210	0x3d338ed2	0.043837376
211	0xbd085e9e	-0.03329336
212	0xbd136d26	-0.035992764
213	0x3cfbf37c	0.03075575
214	0xbc4a9128	-0.0123637095
215	0x3d1a5c02	0.0376854
216	0xbc9c648c	-0.019090913
217	0xbd21d226	-0.039507054
218	0x3c6d1b58	0.014471851
219	0x3b72cb40	0.0037047416
220	0x3ce5b3f4	0.02803991
221	0xbd608c22	-0.05482114
222	0x3bfa50c0	0.0076390207
223	0xbcc48a18	-0.02399163
224	0xbcc662d0	-0.02421704
225	0x3c444c70	0.011981115
226	0xbd46c38c	-0.04852633
227	0x3cb2d688	0.021830812
228	0xbd0e8e72	-0.034803815
229	0xbce37694	-0.027766503
230	0x3d60f8fa	0.054924943
231	0x3d1664bc	0.03671716
232	0xbd34b24c	-0.04411535
233	0xbd37bbf4	-0.04485698
234	0x3d2721b4	0.040803626
235	0xbd4aa0ac	-0.049469635
236	0xbd2b6d72	-0.041852422
237	0xbc999888	-0.01874949
238	0xbd57db70	-0.052699506
239	0xbd219268	-0.039446265
240	0xbd488454	-0.048954323
241	0x3ce78d08	0.028265491
242	0xbc9da01c	-0.019241385
243	0x3d33cfa6	0.0438992
244	0x3d1ed37c	0.038775906
245	0x3ce5eb08	0.028066173
246	0xbd0b7070	-0.034042776
247	0x3c01dc30	0.007926032
248	0xbc6c16f0	-0.014409766
249	0xbd031f62	-0.03201235
250	0xbd0c0868	-0.034187704
251	0xbb917f90	-0.0044402555
252	0x3d594d94	0.0530525
253	0xbd06981e	-0.032859914
254	0xbd37ca4e	-0.044870667
255	0xbb0a0180	-0.0021058023

encoder.batchnorm3.weight f4 [16]
0	0x3f800000	1.0
1	0x3f800000	1.0
2	0x3f800000	1.0
3	0x3f800000	1.0
4	0x3f800000	1.0
5	0x3f800000	1.0
6	0x3f800000	1.0
7	0x3f800000	1.0
8	0x3f800000	1.0
9	0x3f800000	1.0
10	0x3f800000	1.0
11	0x3f800000	1.0
12	0x3f800000	1.0
13	0x3f800000	1.0
14	0x3f800000	1.0
15	0x3f800000	1.0

encoder.batchnorm3.bias f4 [16]
0	0x00000000	0.0
1	0x00000000	0.0
2	0x00000000	0.0
3	0x00000000	0.0
4	0x00000000	0.0
5	0x00000000	0.0
6	0x00000000	0.0
7	0x00000000	0.0
8	0x00000000	0.0
9	0x00000000	0.0
10	0x00000000	0.0
11	0x00000000	0.0
12	0x00000000	0.0
13	0x00000000	0.0
14	0x00000000	0.0
15	0x00000000	0.0

encoder.batchnorm3.running_mean f4 [16]
0	0xbe258fc9	-0.16168131
1	0xbc3902f9	-0.011292213
2	0x3c8e8417	0.01739697
3	0x3c668e6a	0.01407204
4	0x3d277d6c	0.040891096
5	0xbdb2d0f3	-0.0873126
6	0xbda91e94	-0.082577854
7	0x3d89563f	0.06705903
8	0xbca50743	-0.020145064
9	0x3d822e8f	0.063565366
10	0xb8b81878	-8.7783614e-05
11	0xbd790fed	-0.060806204
12	0xbcb807e4	-0.0224647
13	0xbdde08ae	-0.10841499
14	0xbe430ee9	-0.19048657
15	0xbd9232a5	-0.07138566

encoder.batchnorm3.running_var f4 [16]
0	0x3ea23626	0.31681937
1	0x3e529520	0.20564699
2	0x3e31b7a0	0.17355204
3	0x3e702381	0.23451044
4	0x3e793dc5	0.2433997
5	0x3e1df405	0.15425117
6	0x3e1d966d	0.15389414
7	0x3e3b1a57	0.18271767
8	0x3e76c4ee	0.2409856
9	0x3e596f8c	0.21233958
10	0x3e70dc16	0.23521456
11	0x3e87eee7	0.26549456
12	0x3e4aec56	0.19816718
13	0x3e5bb62c	0.21456212
14	0x3e37dc85	0.17955215
15	0x3e25e6f2	0.1620138

encoder.depthwise_conv2.weight f4 [32, 1, 28, 1]
0	0xbddb1026	-0.106964394
1	0xbe0a4ee7	-0.13506661
2	0xbe1286d9	-0.14309253
3	0x3e40b860	0.18820333
4	0xbbb6000f	-0.005554206
5	0x3d104705	0.03522398
6	0xbe1ee7a0	-0.15518045
7	0x3c9db477	0.019251091
8	0x3cfde8a1	0.030994715
9	0xbe0af1b9	-0.13568772
10	0x3e3f9013	0.18707304
11	0xbe1f085f	-0.15530537
12	0x3d84603f	0.0646367
13	0xbd92f6aa	-0.07175954
14	0xbc888715	-0.016665975
15	0x3de24a33	0.11049309
16	0x3e02f06b	0.12787025
17	0xbe061b7d	-0.13096423
18	0xbc96c3cb	-0.018403908
19	0x3b43dcc4	0.0029886225
20	0x3db1c3e1	0.08679939
21	0xbc815d4b	-0.015791556
22	0x3e3ef87a	0.18649474
23	0xbd4c26eb	-0.049841803
24	0xbce0c262	-0.027436439
25	0x3d8acfaa	0.0677789
26	0x3c97129a	0.018441487
27	0xbe12e73c	-0.14346021
28	0x3e128f05	0.1431237
29	0xbdf096b7	-0.117474966
30	0xbe06e2d7	-0.1317247
31	0x3e22a3e9	0.1588284
32	0x3cafaabb	0.021443715
33	0xbda761a8	-0.08172923
34	0xbe0b14ba	-0.13582125
35	0xbd8902b9	-0.066899724
36	0xbe2968f3	-0.16543941
37	0xbd12807e	-0.03576707
38	0x3dba5b44	0.09099439
39	0xbe1322b7	-0.14368711
40	0xbe128095	-0.14306863
41	0x3de42cfb	0.11141392
42	0xbe226675	-0.15859397
43	0xbda7b165	-0.08188132
44	0xbcd7a1fe	-0.026322361
45	0xbe1cbad6	-0.15305647
46	0xbbe62030	-0.00702288
47	0x3dd31ca2	0.10308196
48	0x3d5e3e73	0.054258775
49	0x3da9bd89	0.08288104
50	0x3e2037c7	0.15646277
51	0xbe1e067e	-0.15432164
52	0x3e2e12dc	0.16999382
53	0x3dd3a5a8	0.10334331
54	0xbe23402b	-0.15942447
55	0xbe27d563	-0.16389994
56	0x3dbec96b	0.09315761
57	0xbd86babf	-0.06578588
58	0xbd480ae1	-0.0488385
59	0xbdaca68a	-0.08430202
60	0x3e327974	0.17429143
61	0x3e2cc83e	0.16873261
62	0xbd368342	-0.04455877
63	0xbcf96d09	-0.0304475
64	0xbe31d7a7	-0.17367421
65	0xbe349d0b	-0.17638032
66	0xbe3b760c	-0.1830675
67	0x3c18b5b7	0.009320668
68	0x3e2d4c39	0.16923608
69	0x3cb7134f	0.022348074
70	0xbd91648c	-0.07099256
71	0xbd675cc2	-0.056484945
72	0xbdb9d8ae	-0.090745315
73	0x3d95c53c	0.0731301
74	0x3e366917	0.17813526
75	0x3cf97e6b	0.030455789
76	0x3def1335	0.11673585
77	0x3e0244a5	0.12721498
78	0xbcd84932	-0.02640209
79	0xbe276bb0	-0.16349673
80	0x3d997310	0.074926496
81	0x3e31ece2	0.1737552
82	0xbcac8e20	-0.021063864
83	0x3c4fa39a	0.012673283
84	0xbc03e52c	-0.008050244
85	0x3d2046bc	0.039129958
86	0x3d954f10	0.072904706
87	0xbe0bb5a6	-0.13643512
88	0xbcd8c733	-0.026462173
89	0xbe2b0178	-0.16699779
90	0xbc036a0d	-0.00802089
91	0x3d0af169	0.033921633
92	0xbcf1a1c2	-0.029496077
93	0x3d990f7e	0.07473658
94	0xbd987815	-0.07444779
95	0x3e0af09d	0.13568349
96	0xbdd95183	-0.1061125
97	0xbd3a3e8a	-0.0454698
98	0x3de2a58d	0.110667326
99	0xbd8cd2ad	-0.06876121
100	0x3c34d81d	0.011037854
101	0xbe381948	-0.17978394
102	0x3d77dad5	0.06051143
103	0xbe05f544	-0.13081843
104	0x3e06ad2b	0.13151996
105	0x3dfc605c	0.123230666
106	0xbe2dffda	-0.16992131
107	0x3e0068a3	0.12539916
108	0x3d4ccbe0	0.049999118
109	0x3ac2b471	0.0014854801
110	0x3cae3003	0.021263128
111	0xbdd0e3a1	-0.10199667
112	0x3dcbd28d	0.09952269
113	0xbcc56dfa	-0.024100292
114	0x3da6a3ba	0.08136697
115	0xbd866569	-0.06562311
116	0x3c889b4e	0.016675618
117	0x3d658b21	0.056040887
118	0xbbc93b0c	-0.006141072
119	0xbc0cf13e	-0.0086024385
120	0x3dd7e9cc	0.1054264
121	0xbe0a15c4	-0.13484865
122	0x3e19e4e5	0.15028723
123	0x3cc5c2bc	0.024140708
124	0xbe13d5b3	-0.14436989
125	0xbc88256d	-0.016619409
126	0xbc84f4fa	-0.016230095
127	0xbd9a0033	-0.07519569
128	0xbe3a3e4e	-0.1818783
129	0x3e364ed5	0.1780351
130	0x3e113015	0.14178498
131	0xbddc3120	-0.10751557
132	0x3e0346da	0.12819996
133	0x3e3cda37	0.18442617
134	0x3db906f8	0.09034532
135	0x3e00a045	0.12561138
136	0xbe098b4a	-0.13432041
137	0xbe1d3ef2	-0.15356043
138	0xbdcb984c	-0.09941158
139	0x3e1b17be	0.15145776
140	0xbe066d0d	-0.13127537
141	0x3e2f98bb	0.17148106
142	0xbda2110e	-0.07913409
143	0xbb7f4dfe	-0.00389564
144	0xbe277549	-0.16353334
145	0xbe22c4cd	-0.15895386
146	0xbdf537b7	-0.119735174
147	0xbdd1d74f	-0.10246145
148	0x3e3efaa2	0.18650296
149	0xbd346b5a	-0.04404769
150	0x3d929bf4	0.07158652
151	0xbe344a27	-0.17606412
152	0x3d85815b	0.06518813
153	0x3cc13d74	0.023588873
154	0xbe1b9588	-0.1519376
155	0xbdb34080	-0.08752537
156	0x3cc6abe4	0.024251886
157	0xbcd54216	-0.026032489
158	0x3c82dc38	0.01597415
159	0xbd4384fc	-0.047734246
160	0x3d6d424d	0.057924557
161	0x3e0730b6	0.13202175
162	0xbda0da00	-0.0785408
163	0x3cc37063	0.023857301
164	0xbcd9bb39	-0.026578533
165	0xbcd25220	-0.025673926
166	0xbe036559	-0.1283163
167	0x3d55d6c4	0.05220677
168	0x3e3d171c	0.18465847
169	0x3d59b937	0.05315515
170	0xbdec3c2b	-0.11534914
171	0xbd90ec15	-0.07076279
172	0xbc07f206	-0.008297449
173	0x3c901fda	0.017593313
174	0xbc665306	-0.01405788
175	0xbdf22b69	-0.11824686
176	0xbe388480	-0.18019295
177	0x3d3a6b60	0.045512557
178	0xbdd3a41f	-0.10334038
179	0xbe221d73	-0.15831546
180	0xbd825308	-0.06363493
181	0xbde5f443	-0.1122823
182	0x3c8d634b	0.01725926
183	0xbc87d19d	-0.016579444
184	0x3e2aca7e	0.16678807
185	0x3db09c4c	0.08623561
186	0x3e07d2a2	0.13263944
187	0x3e2f55ba	0.17122546
188	0xbd650205	-0.05591013
189	0xbc2b87a1	-0.010469348
190	0x3e25dc7b	0.16197388
191	0x3d566b06	0.05234816
192	0xbcc43b11	-0.023953946
193	0xbe2ee0b7	-0.1707791
194	0x3daded23	0.08492496
195	0xbe2d020b	-0.1689531
196	0x3dc75bab	0.09734281
197	0x3bf4a970	0.0074664876
198	0x3afbce99	0.0019211351
199	0x3d7557fc	0.05989836
200	0xbbc1ce13	-0.0059144585
201	0x3d0bd216	0.0341359
202	0x3da651a0	0.081210375
203	0xbe14e50b	-0.14540498
204	0x3e325b5c	0.17417663
205	0x3dce4bef	0.10073077
206	0x3dd963cc	0.10614738
207	0x3d266f22	0.04063333
208	0xbd4183a3	-0.04724468
209	0x3c106945	0.008814161
210	0x3e2ad5df	0.16683148
211	0x3e30567b	0.1722049
212	0xbde685d3	-0.11255994
213	0x3df8d688	0.121502936
214	0x3dd4a74f	0.10383474
215	0x3dcf6e67	0.101284795
216	0x3e340215	0.17578919
217	0x3d0c7d5a	0.034299232
218	0xbd89398b	-0.067004286
219	0x3d83889b	0.0642254
220	0xbcfad958	-0.030621216
221	0xbe09d04f	-0.1345837
222	0x3c354e82	0.011066081
223	0xbdcbc94a	-0.09950502
224	0xbce3a155	-0.02778689
225	0xbde68dc0	-0.112575054
226	0xbdc3b18c	-0.09555349
227	0xbe3dbf00	-0.18529892
228	0x3da0be3e	0.07848786
229	0xbda95dad	-0.0826982
230	0x3d573a68	0.052545935
231	0xbe411571	-0.18855835
232	0x3e33e467	0.17567597
233	0x3de558a2	0.11198546
234	0xbdd42a3d	-0.10359619
235	0xbd67b0d4	-0.05656512
236	0xbd4e246a	-0.050327696
237	0x3bb8ccae	0.005639634
238	0x3dba90f6	0.0910968
239	0xbe12ba23	-0.14328818
240	0x3df256e9	0.11832983
241	0xbd89c6c2	-0.06727363
242	0x3dca15e9	0.0986746
243	0xbdd4cc56	-0.103905365
244	0xbd119364	-0.035540953
245	0xbe18c15b	-0.1491751
246	0xbd45caa6	-0.048288964
247	0x3da3542a	0.079750374
248	0x3e28a3dd	0.16468759
249	0x3e28904c	0.16461295
250	0xbe2031a3	-0.15643935
251	0x3ca88820	0.020572722
252	0x3db89afd	0.09013937
253	0x3e3f28b4	0.18667871
254	0x3d14ce2a	0.036329426
255	0x3d10b0df	0.035324927

encoder.batchnorm4.weight f4 [32]
0	0x3f800000	1.0
1	0x3f800000	1.0
2	0x3f800000	1.0
3	0x3f800000	1.0
4	0x3f800000	1.0
5	0x3f800000	1.0
6	0x3f800000	1.0
7	0x3f800000	1.0
8	0x3f800000	1.0
9	0x3f800000	1.0
10	0x3f800000	1.0
11	0x3f800000	1.0
12	0x3f800000	1.0
13	0x3f800000	1.0
14	0x3f800000	1.0
15	0x3f800000	1.0
16	0x3f800000	1.0
17	0x3f800000	1.0
18	0x3f800000	1.0
19	0x3f800000	1.0
20	0x3f800000	1.0
21	0x3f800000	1.0
22	0x3f800000	1.0
23	0x3f800000	1.0
24	0x3f800000	1.0
25	0x3f800000	1.0
26	0x3f800000	1.0
27	0x3f800000	1.0
28	0x3f800000	1.0
29	0x3f800000	1.0
30	0x3f800000	1.0
31	0x3f800000	1.0

encoder.batchnorm4.bias f4 [32]
0	0x00000000	0.0
1	0x00000000	0.0
2	0x00000000	0.0
3	0x00000000	0.0
4	0x00000000	0.0
5	0x00000000	0.0
6	0x00000000	0.0
7	0x00000000	0.0
8	0x00000000	0.0
9	0x00000000	0.0
10	0x00000000	0.0
11	0x00000000	0.0
12	0x00000000	0.0
13	0x00000000	0.0
14	0x00000000	0.0
15	0x00000000	0.0
16	0x00000000	0.0
17	0x00000000	0.0
18	0x00000000	0.0
19	0x00000000	0.0
20	0x00000000	0.0
21	0x00000000	0.0
22	0x00000000	0.0
23	0x00000000	0.0
24	0x00000000	0.0
25	0x00000000	0.0
26	0x00000000	0.0
27	0x00000000	0.0
28	0x00000000	0.0
29	0x00000000	0.0
30	0x00000000	0.0
31	0x00000000	0.0

encoder.batchnorm4.running_mean f4 [32]
0	0xbcfe5953	-0.031048452
1	0xbe0e7a53	-0.1391385
2	0x3cfb2673	0.030657982
3	0xbd2963ac	-0.04135482
4	0x3d5dd930	0.054162204
5	0xbdd45eb2	-0.10369624
6	0xbd1754c7	-0.036946084
7	0x3e3a94e8	0.18220866
8	0xbd8cb4c6	-0.06870417
9	0x3c43db6c	0.01195417
10	0x3e571418	0.21003759
11	0x3dbd5a12	0.09245695
12	0xbddf5f4b	-0.109068476
13	0x3db8582a	0.09001191
14	0x3dd638f7	0.10460084
15	0x3c3350de	0.010944573
16	0x3e148bbb	0.14506428
17	0x3cf9afc0	0.030479312
18	0xbc90a6e0	-0.017657697
19	0xbe107d13	-0.14110212
20	0x3cef076e	0.029178347
21	0xbd535f72	-0.051604696
22	0x3cc1cd0d	0.023657346
23	0x3d6cf11a	0.05784712
24	0xbe033be2	-0.12815812
25	0xbd151905	-0.036400814
26	0xbd4f6548	-0.0506337
27	0xbd53a27a	-0.05166862
28	0x3d35839b	0.044314962
29	0x3c194d3e	0.009356795
30	0x3c958bab	0.018255075
31	0xbde5ba33	-0.11217155

encoder.batchnorm4.running_var f4 [32]
0	0x3dd647b5	0.10462896
1	0x3e278928	0.16360915
2	0x3e2d1d49	0.16905703
3	0x3d51708d	0.051132727
4	0x3de2486a	0.11048968
5	0x3dc4cfff	0.096099846
6	0x3e32da37	0.17466055
7	0x3e1634a2	0.14668515
8	0x3e00feda	0.12597218
9	0x3e01ea51	0.12687041
10	0x3e352034	0.17688066
11	0x3dbd3d76	0.09240238
12	0x3e4021de	0.1876292
13	0x3dd7571a	0.1051466
14	0x3e2c2158	0.16809595
15	0x3de0a5b1	0.10969103
16	0x3e3ef8e9	0.18649639
17	0x3dfdeb6a	0.12398417
18	0x3de0cec6	0.10976939
19	0x3e1951d2	0.14972618
20	0x3e93ee67	0.28892824
21	0x3e317cf5	0.17332824
22	0x3da1962e	0.078899726
23	0x3da1c9cb	0.07899817
24	0x3e3b904a	0.1831676
25	0x3db39eb1	0.08770502
26	0x3dc33dc1	0.09533263
27	0x3dd7401b	0.10510274
28	0x3e1c1c18	0.15245092
29	0x3deee142	0.11664058
30	0x3e054da9	0.13017906
31	0x3dac62fa	0.08417316

encoder.fc.weight f4 [128, 448]
0	0x3d06e599	0.032933805
1	0x3caaf546	0.020868909
2	0x3ce05750	0.027385384
3	0x3bbe901c	0.005815519
4	0x3a9755bc	0.0011545937
5	0x3cc57666	0.024104308
6	0xbcdcd41f	-0.026956616
7	0x3b743d0e	0.0037267837
8	0xbc15a85e	-0.00913438
9	0x3ce3b8ef	0.027798144
10	0xbcd9ba87	-0.026578201
11	0xbbb1bffe	-0.0054244986
12	0x3c3382f4	0.010956515
13	0xbcf1509a	-0.02945738
14	0x3d26e2da	0.040743686
15	0xbc86019a	-0.016358186
16	0xbd28c5db	-0.041204315
17	0xbc82de25	-0.015975067
18	0xbbaa2ac4	-0.0051930863
19	0xbd3ac12b	-0.045594376
20	0xbc55c2da	-0.0130469445
21	0x3c0d384d	0.00861938
22	0xbd27d528	-0.040974766
23	0xbd0fd6c3	-0.035116922
24	0xbc314246	-0.0108190235
25	0x3ce31af1	0.027722808
26	0xbd1cbd9b	-0.03826676
27	0xbc74c415	-0.014939328
28	0x3baecd02	0.0053344974
29	0x3c591068	0.01324854
30	0xbb29c69b	-0.0025905732
31	0x3d2903bc	0.041263327
32	0xbd2b6d8c	-0.04185252
33	0xbc8efb12	-0.017453704
34	0x3c4b15f5	0.012395372
35	0x3c29d6e2	0.010366173
36	0xbd0b6054	-0.034027413
37	0x3cb92834	0.022602178
38	0x3cc3e263	0.02391166
39	0x3c50f880	0.0127545595
40	0x3d13326b	0.035936754
41	0xbc2839d1	-0.010267691
42	0xbcb46ecd	-0.02202549
43	0x3c4061b7	0.011742047
44	0xbd1530f4	-0.03642364
45	0xbc320ded	-0.010867578
46	0x3d3ffbb3	0.0468709
47	0x3cc884b0	0.024477333
48	0xbcde7623	-0.027155941
49	0x3c65bbca	0.014021823
50	0x3d12cb7c	0.03583859
51	0xbbab7595	-0.0052325227
52	0xbcbdd26e	-0.02317163
53	0xbbf7b098	-0.0075588934
54	0x3cd21ccf	0.025648503
55	0x3d184939	0.037179206
56	0xbb6471c8	-0.0034857858
57	0xbc6cd8eb	-0.014456014
58	0x3ceb50a9	0.028724985
59	0xbca79833	-0.020458316
60	0x3ceb8389	0.028749244
61	0x3c893f63	0.016753858
62	0x3b839401	0.004015446
63	0xbb3b5dad	-0.002858977
64	0x3d3bab41	0.045817617
65	0x3d00b916	0.03142651
66	0xbd0e2bc3	-0.034709703
67	0xbcf8c265	-0.030366132
68	0xbcaceaf3	-0.021108126
69	0x3bd27bcc	0.006423449
70	0x3d0ea225	0.0348226
71	0xbc9d712d	-0.019219005
72	0xbd3912c4	-0.045183912
73	0xbd0d43a8	-0.03448835
74	0x3d364315	0.04449757
75	0xbd37ed41	-0.044903997
76	0x3a4cd547	0.0007813763
77	0xbcbfe429	-0.023424225
78	0x3c8f0ab9	0.017461168
79	0x3cbc82d2	0.023011599
80	0xbcec9773	-0.02888081
81	0xbcddbf9e	-0.02706891
82	0xbb9b074f	-0.004731096
83	0x3ccccb19	0.024999188
84	0xbd1ea857	-0.03873476
85	0x3ca2624b	0.01982226
86	0xbd2811b3	-0.041032504
87	0x3ccef418	0.025262877
88	0x3cf0fc7f	0.029417275
89	0x3c484528	0.012223519
90	0xbd0634ee	-0.03276532
91	0x3d3eebba	0.046611525
92	0x3cf6ae8a	0.030112524
93	0xbc7b9c4e	-0.01535709
94	0xbb73d74a	-0.003720718
95	0x3d1247f7	0.035713162
96	0x3cc4e426	0.02403457
97	0xbcd54a5a	-0.02603643
98	0xbcf9d890	-0.030498773
99	0xbca01f0d	-0.019546056
100	0xbd30d725	-0.043173928
101	0x3d3e26b5	0.046423633
102	0x3d041ac1	0.032252077
103	0xbd1689ce	-0.036752515
104	0xbcdc510a	-0.026894111
105	0xbc516e30	-0.012782618
106	0xbcf59bb9	-0.02998148
107	0xbbc9dbc6	-0.0061602322
108	0xbbdda951	-0.006764569
109	0x3d013014	0.03153999
110	0xbc19e2f4	-0.009392489
111	0xbd0143e9	-0.031558905
112	0x3c8190ce	0.015816119
113	0xbd18092e	-0.03711813
114	0xba6fe2e9	-0.0009150939
115	0xbd234ad0	-0.03986627
116	0x3c48d3d6	0.012257537
117	0xbd2937c2	-0.04131294
118	0x3ce980ec	0.028503858
119	0xbcd0d566	-0.025492381
120	0x3d230ff3	0.039810132
121	0x3c65a78c	0.014016997
122	0xbb573b91	-0.00328419
123	0x3b21043d	0.0024569177
124	0x3c7e374b	0.015516113
125	0xbc909c91	-0.017652782
126	0xbd2b1fbc	-0.04177831
127	0x3a9fcd8d	0.0012191996
128	0x3d390540	0.045171022
129	0x3c8cf653	0.0172073
130	0xbcde7197	-0.027153773
131	0xbc99d657	-0.018778963
132	0x3d09abd7	0.033611145
133	0x3cb20b69	0.021733956
134	0xbc2691ed	-0.010166627
135	0x3c8d8e1c	0.017279677
136	0xbd3fc303	-0.046816837
137	0xbc13060e	-0.0089736115
138	0xbcc5fcd3	-0.024168408
139	0xbc80ec5a	-0.015737701
140	0xbd0ef8a3	-0.034905087
141	0xbb80b182	-0.0039274106
142	0x3c4d15c5	0.012517397
143	0xbcf3ba42	-0.0297519
144	0xbcb7f163	-0.02245397
145	0x3c6e284a	0.014535973
146	0x3c923a89	0.017850177
147	0x3d1a502c	0.037674114
148	0x3b80206b	0.0039101145
149	0xbcac245b	-0.02101343
150	0x3cb756cd	0.022380257
151	0xbcbc9080	-0.023018122
152	0x3c594002	0.01325989
153	0x3c0f9c58	0.008765303
154	0xbbede9ab	-0.0072605214
155	0xbd3be023	-0.04586805
156	0x3c98ae07	0.01863767
157	0x3bd24f1a	0.006418121
158	0x3cfaa3a6	0.030595612
159	0x3c5c3885	0.01344121
160	0x3ce44589	0.027865188
161	0xbc8edca2	-0.01743919
162	0x3b7a9770	0.0038237236
163	0xbc37d1f8	-0.011219494
164	0xbc8d8a12	-0.017277751
165	0x3c933de9	0.017973857
166	0xbcfd3e46	-0.030913483
167	0x3d00bb17	0.031428423
168	0x3d05dac9	0.032679353
169	0xbc563622	-0.01307443
170	0x3d262f03	0.040572178
171	0x3d0223a3	0.031772267
172	0x3cda60c2	0.026657466
173	0x3cc4b48f	0.024011878
174	0x3c1b028f	0.009461059
175	0x3d302af2	0.043009706
176	0x3c734a43	0.014849248
177	0x3d40fb83	0.04711486
178	0x3ba41257	0.005007069
179	0x3b592110	0.003313128
180	0x3ccb2e1a	0.024802256
181	0xbd271a34	-0.040796474
182	0xbc60a192	-0.013710396
183	0x3d2875e3	0.04112805
184	0x3b6151d2	0.0034381044
185	0xbd196887	-0.0374532
186	0xbd16259e	-0.03665697
187	0x3bfc80f3	0.0077058016
188	0xbd193f18	-0.037413687
189	0xbd2495e8	-0.040182024
190	0xbd04d517	-0.03242978
191	0x3d087a87	0.033319976
192	0x3d17166a	0.03688661
193	0x3d2279ff	0.039667126
194	0xbc81fa84	-0.015866525
195	0x3cba8446	0.022768151
196	0xbd331bae	-0.04372757
197	0xbd078998	-0.033090204
198	0xbd0a9cb6	-0.033840857
199	0xbb1fa48b	-0.002435955
200	0xbb95e62a	-0.004574557
201	0xbd07ab88	-0.03312257
202	0x3c143fa0	0.0090483725
203	0x3cb8c5a4	0.02255518
204	0xbc3b3058	-0.0114251
205	0xbc6a7f9a	-0.014312649
206	0x3cfaf792	0.030635629
207	0xbd1886d9	-0.037237976
208	0x3cb1df11	0.021712812
209	0x3a42320b	0.00074079697
210	0x3d3fe60e	0.046850257
211	0xbce120d0	-0.027481467
212	0xbd23cca4	-0.039990082
213	0xbc8d48b2	-0.017246578
214	0x3b943063	0.0045223697
215	0xbc8a1da5	-0.016859839
216	0x3c481f6e	0.012214525
217	0x3b6e070e	0.0036320123
218	0x3c38fde2	0.011290999
219	0xbd0f0876	-0.03492018
220	0x3c79050c	0.015198957
221	0x3d3b86da	0.0457829
222	0x3c3b447e	0.011429904
223	0x3c19fc71	0.009398566
224	0x3baeb66d	0.0053318054
225	0xbcdad1d8	-0.02671139
226	0x3caecf56	0.0213391
227	0xbcebce10	-0.028784782
228	0x3d37464e	0.044744782
229	0x3b548722	0.0032429178
230	0x3c4fdb84	0.012686614
231	0xbce2c966	-0.027683925
232	0x3ccdf1b5	0.025139669
233	0x3be0279b	0.006840659
234	0xbcc01b6a	-0.023450572
235	0x3c905295	0.017617503
236	0xbb57cd45	-0.0032928747
237	0x3c3ca889	0.011514791
238	0xbce2a330	-0.027665704
239	0x3d34c4b8	0.044132918
240	0xbbe50a32	-0.0069897408
241	0x3d0f43d1	0.034976784
242	0xbc87fea3	-0.016600912
243	0x3c7b6fc0	0.0153464675
244	0xbc7d4155	-0.015457471
245	0x3c27f121	0.010250361
246	0x3d2d119c	0.04225312
247	0xbd1e7a95	-0.038691122
248	0xbcb916de	-0.022593912
249	0x3c5a359d	0.013318446
250	0x3d16c64c	0.036810204
251	0x3d417d2c	0.047238514
252	0xbce51fc9	-0.027969258
253	0x3b770da5	0.0037697342
254	0xbcdb937d	-0.026803726
255	0x3d02fde5	0.031980414

encoder.fc.bias f4 [128]
0	0xbd0e2f47	-0.034713056
1	0xbcad3382	-0.021142725
2	0xbd2e21e3	-0.042512786
3	0xbc53d66a	-0.012929538
4	0xbbfbc7b3	-0.007683718
5	0xbd10e2d6	-0.035372578
6	0xbb9c46e1	-0.0047691916
7	0x3c983808	0.018581405
8	0xbc0ed754	-0.00871833
9	0x3d306fa8	0.043075234
10	0x3cdb7f3f	0.026794074
11	0x3d0c7ca6	0.03429856
12	0x3a7185b2	0.00092133426
13	0xbc0068c6	-0.00783748
14	0x399b3523	0.00029603494
15	0x3c33d7f8	0.010976784
16	0xbbda7afe	-0.006667494
17	0x3ca99067	0.02069874
18	0x3bbe3511	0.005804666
19	0x3cfff73d	0.031245822
20	0x3cccd6dc	0.025004797
21	0x3cd24a33	0.025670147
22	0x3bd268e6	0.0064211963
23	0x3c690d9f	0.014224439
24	0xbbf04d97	-0.007333468
25	0xbd11132c	-0.035418674
26	0xbd30d89a	-0.043175317
27	0xbbad16c2	-0.005282254
28	0x3b2a2396	0.0025961152
29	0xbccd8043	-0.025085574
30	0xbd41687a	-0.047218777
31	0x3d31cef2	0.04341025
32	0x3c10b94e	0.008833243
33	0x3a344f4a	0.000687827
34	0xbcdd3576	-0.027003031
35	0x3b8f86a2	0.004380063
36	0x3d1f0bef	0.03882974
37	0x3c086774	0.008325446
38	0xbc09159f	-0.008366971
39	0x3cf29451	0.029611738
40	0x3d18e8b0	0.037331283
41	0xbbb167c9	-0.0054139835
42	0xbd32f687	-0.043692138
43	0xbd28f29f	-0.041247007
44	0x3d37a6e3	0.04483689
45	0x3cb827d7	0.022479935
46	0x3cc65d34	0.024214365
47	0xbd2a6038	-0.041595668
48	0xbd05bae0	-0.03264892
49	0x3d09487c	0.033516392
50	0x3d27bee8	0.040953547
51	0xbd3aafc5	-0.045577783
52	0xbd02550a	-0.03181938
53	0xbb8a6731	-0.004223727
54	0x3c808366	0.015687656
55	0xbd3250d4	-0.043534115
56	0x3c5bb607	0.013410098
57	0xbd30b0e9	-0.043137465
58	0xbd35c196	-0.04437407
59	0x3c8dbace	0.01730099
60	0x3a39cc8f	0.00070876715
61	0x3c39df39	0.011344724
62	0xbaff16d0	-0.0019461755
63	0xbd0e302b	-0.034713905
64	0xbd36173e	-0.04445576
65	0x3d35019c	0.044190988
66	0x3caf7647	0.021418704
67	0xbd3e447a	-0.046452023
68	0x3d3310bf	0.043717142
69	0x3c413e18	0.011794589
70	0x3c89c307	0.01681663
71	0x3cdf7274	0.027276255
72	0xbd3474c1	-0.044056658
73	0x3cc31c28	0.023817137
74	0xbb8a96a0	-0.0042293817
75	0x3c033e89	0.008010515
76	0x3c51dd0d	0.01280905
77	0xbd17b853	-0.03704102
78	0x3cffc92a	0.031223852
79	0xbd244669	-0.04010621
80	0xbcf7cc02	-0.030248646
81	0xbd256884	-0.040382877
82	0x3c965e50	0.018355519
83	0xbcb68584	-0.022280462
84	0xbd1f8b20	-0.03895104
85	0x3cb3109b	0.021858504
86	0xbab90805	-0.001411677
87	0x3cde844a	0.02716269
88	0x3d0af70e	0.033927016
89	0x3d089229	0.033342514
90	0xbcb59bd1	-0.022169026
91	0x3d116175	0.035493333
92	0x3b6fdc03	0.0036599643
93	0x3cc0ad7f	0.02352023
94	0xbd07015f	-0.032960292
95	0x3c8a0130	0.01684627
96	0x3c5ce31f	0.013481884
97	0xbc90f4d3	-0.017694866
98	0x3be6345d	0.007025285
99	0xba84cd87	-0.0010132053
100	0x3c9e1a68	0.0192997
101	0xbc965706	-0.018352043
102	0xbc9b7d75	-0.018980721
103	0x3d1bf59d	0.038076032
104	0xbc526585	-0.012841587
105	0xbc9af426	-0.018915247
106	0x3cc53f79	0.024078118
107	0xbc20631b	-0.009789254
108	0xbd0b7642	-0.034048326
109	0x3cb44922	0.022007529
110	0xbcc3ddbf	-0.023909448
111	0x3cfbfbcc	0.030759715
112	0x3b9713b0	0.004610501
113	0xbcd3838b	-0.02581956
114	0x3d059a00	0.03261757
115	0x3d14eb22	0.036357053
116	0xbd1c8984	-0.038217083
117	0x3d3d5d1c	0.046231374
118	0x3d2332cc	0.039843366
119	0x3a0b21dc	0.00053074746
120	0x3cca55e7	0.024699165
121	0x3ce9d732	0.028544996
122	0x3cf06350	0.02934423
123	0x395c6f9b	0.00021022411
124	0xbcf1a544	-0.02949775
125	0x3c8155d7	0.015788002
126	0x3cce9bc8	0.025220767
127	0xbcb09e6d	-0.021559918

fc.weight f4 [3, 128]
0	0x3d11d1e0	0.035600543
1	0xbe6c10b5	-0.23053248
2	0xbe9159e4	-0.28388894
3	0x3ec8f05a	0.39245874
4	0xbec6c97a	-0.3882559
5	0xbec6496f	-0.387279
6	0xbe0b093d	-0.13577743
7	0x3dd94565	0.10608939
8	0x3e636787	0.22207461
9	0x3ea1982c	0.3156141
10	0xbea35b8e	-0.31905788
11	0xbdbf0fe4	-0.09329203
12	0xbe0cb242	-0.13739875
13	0xbdb89166	-0.090121076
14	0xbdbd2bcf	-0.092368715
15	0xbe1114d8	-0.14168108
16	0xbe3f75c8	-0.18697274
17	0x3ee086d1	0.43852857
18	0xbe1641bb	-0.14673512
19	0x3d7d4e2e	0.061842136
20	0xbdc7c1a0	-0.09753728
21	0xbc2f8f13	-0.010715264
22	0xbc966643	-0.018359309
23	0xbd924895	-0.0714275
24	0x3da979d3	0.08275189
25	0xbc83aff6	-0.016075116
26	0x3e46627b	0.19373505
27	0xbea3c532	-0.31986386
28	0x3d84274a	0.06452806
29	0x3e4a82ee	0.19776508
30	0xbe891ff2	-0.26782185
31	0x3d9f33e7	0.077735715
32	0x3e50c6fb	0.20388405
33	0xbde9a1f0	-0.1140784
34	0x3e0a07ec	0.13479584
35	0x3d24a22e	0.04019373
36	0x3e4ba264	0.19886166
37	0x3ceb91ea	0.0287561
38	0x3eb70072	0.35742527
39	0x3d39cc0f	0.04536062
40	0xbe88a147	-0.26685545
41	0x3ca47d59	0.020079302
42	0x3d5d16e8	0.053976923
43	0xbe6200f5	-0.22070678
44	0xbee03cc6	-0.43796366
45	0xbd7d9056	-0.061905228
46	0x3ea4fff6	0.32226533
47	0x3eaf1c1f	0.34201142
48	0x3e33c93c	0.17557234
49	0xbe845044	-0.25842488
50	0xbd0e8a82	-0.03480006
51	0x3e85efad	0.2615942
52	0x3e11be21	0.14232685
53	0xbe360b90	-0.17777848
54	0x3e3ce402	0.18446353
55	0x3e9e8945	0.30964103
56	0x3e315ce7	0.17320596
57	0xbe220c8b	-0.15825097
58	0x3e0ac169	0.13550343
59	0x3d18e734	0.037329867
60	0x3e59b5b0	0.21260715
61	0xbd5eb88a	-0.05437521
62	0x3dafab25	0.08577565
63	0x3d8abe04	0.06774524
64	0x3d25936e	0.040423803
65	0x3eca59ad	0.39521542
66	0x3e6cec42	0.23137
67	0xbd2bb612	-0.041921683
68	0xbe1211f3	-0.1426466
69	0xbe38c495	-0.1804374
70	0x3e4f5210	0.20246148
71	0xbd1d73c9	-0.0384405
72	0x3e15f00c	0.14642352
73	0xbe415b3e	-0.18882462
74	0x3de73fe2	0.112914816
75	0xbdf617d4	-0.120162636
76	0x3cf0bfca	0.029388327
77	0x3daa5bd8	0.08318299
78	0xbde5a090	-0.112122655
79	0x3ecd23e9	0.4006646
80	0x3dbbf95e	0.091784224
81	0x3e8c583f	0.27411076
82	0xbd5c4c46	-0.053783678
83	0x3e152ead	0.14568587
84	0xbe37e801	-0.17959596
85	0xbe7238b7	-0.23654447
86	0xb99fbeab	-0.00030468902
87	0xbd546af2	-0.051859803
88	0x3ad60374	0.0016327933
89	0x3ec83d80	0.3910942
90	0xbe862abe	-0.26204485
91	0x3d850a56	0.06496112
92	0x3e0fa328	0.14027083
93	0x3d33fa7e	0.04394006
94	0xbef28a61	-0.473712
95	0x3e5e2241	0.21692754
96	0x3daa9aaf	0.08330285
97	0xbcfbf2dd	-0.030755455
98	0xbdc186bf	-0.09449529
99	0x3e3bad72	0.18327883
100	0x3d4a4586	0.04938271
101	0x3e472169	0.19446339
102	0xbe416aac	-0.18888348
103	0x3e35550e	0.17708227
104	0xbea9f3f8	-0.33193946
105	0xbdd4123c	-0.103550404
106	0xbcc6a52d	-0.024248684
107	0xbeb85e5f	-0.360095
108	0xbebe35de	-0.37150472
109	0x3d9805f0	0.074230075
110	0x3dd6e595	0.10493008
111	0xbe6c6722	-0.23086217
112	0x3d75ac74	0.059978917
113	0xbd9302aa	-0.071782425
114	0xbd82eab7	-0.063924246
115	0x3c9228ce	0.017841723
116	0xbc6bf546	-0.014401739
117	0x3e287d4d	0.16454048
118	0x3e0d831d	0.13819547
119	0xbe657207	-0.22406779
120	0xbe422a9b	-0.18961565
121	0xbde03ad5	-0.10948721
122	0xbd3ed787	-0.04659226
123	0xbe4e52a2	-0.2014871
124	0xbdbc0f6c	-0.09182629
125	0xbe9426f6	-0.28935975
126	0xbe28773e	-0.16451737
127	0x3e5b8a7d	0.21439548
128	0xbe4b5d97	-0.1985992
129	0x3e01b909	0.12668242
130	0x3e707bd5	0.23484738
131	0x3bf23bdc	0.0073923897
132	0xbd000d09	-0.03126243
133	0x3e6b186d	0.22958536
134	0xbe54f722	-0.20797399
135	0xbe2369e1	-0.15958358
136	0x3dde4928	0.10853797
137	0xbe2af000	-0.16693115
138	0xbbdce82f	-0.0067415456
139	0x3e4a35ce	0.19747087
140	0xbdc44a1b	-0.09584447
141	0xba9f5843	-0.0012157041
142	0xbe40929f	-0.18805932
143	0x3cc8bdea	0.02450462
144	0x3e57b6e6	0.21065864
145	0xbd2d4cd5	-0.0423096
146	0x3d7e4480	0.062077045
147	0xbf0e6651	-0.5562487
148	0xbe3e726b	-0.18598334
149	0xbd8fa562	-0.07013966
150	0xbd2ab11d	-0.041672815
151	0x3e501c0f	0.20323204
152	0xbe3ddfe3	-0.18542437
153	0xbd310367	-0.043216135
154	0xbe0d686f	-0.1380937
155	0x3e8e35ae	0.2777533
156	0xbbb6cf46	-0.005578908
157	0xbc98be42	-0.01864541
158	0x3e6ecae7	0.23319589
159	0xbde4a76e	-0.11164747
160	0xbe374a75	-0.17899497
161	0xbcd6e781	-0.026233437
162	0x3d300604	0.042974487
163	0xbd9b8e17	-0.07595461
164	0x3d0558d1	0.032555405
165	0x3d3e6e73	0.04649205
166	0x3ded32d3	0.115819596
167	0xbdc8acf4	-0.09798613
168	0xbd910411	-0.07080854
169	0xbe03d00b	-0.12872331
170	0xbc938e7e	-0.018012282
171	0xbde0e925	-0.10981969
172	0xbc08b057	-0.008342824
173	0xbd936612	-0.07197203
174	0xbd96dcc0	-0.073663235
175	0xbebc2391	-0.36745885
176	0xbd8f3444	-0.06992391
177	0x3db0527f	0.08609485
178	0x3d20800d	0.03918462
179	0xbda05e77	-0.07830518
180	0x3e0ffe70	0.14061904
181	0xbc03fe2f	-0.008056208
182	0xbd53073e	-0.05152058
183	0xbe44f545	-0.19234188
184	0x3db428fc	0.0879688
185	0x3eeba9e5	0.46028057
186	0x3d366bd0	0.04453641
187	0x3dd91373	0.10599413
188	0x3dde4c5d	0.10854409
189	0xbddbce24	-0.107326776
190	0x3e192ba5	0.14958055
191	0xbe4df3d5	-0.20112546
192	0xbdf6bad1	-0.12047351
193	0xbea3d1b4	-0.31995928
194	0x3d74068d	0.05957656
195	0xbd809688	-0.062787116
196	0x3e344550	0.17604566
197	0x3e0b1d97	0.13585506
198	0x3d7f7e55	0.06237634
199	0xbd4473f8	-0.04796216
200	0xbd986d5d	-0.074427344
201	0xbbe327d2	-0.006932237
202	0x3e4d6c35	0.20060809
203	0x3d395986	0.04525139
204	0x3d279ee7	0.040923025
205	0xbc741c1f	-0.014899283
206	0xbd9d11ab	-0.076693855
207	0xbe417a09	-0.18894209
208	0xbe6a4ac3	-0.22880082
209	0xbeba361d	-0.3636941
210	0xbe1445d4	-0.14479762
211	0xbca02163	-0.01954717
212	0xbea6e1f1	-0.32594255
213	0x3ec37a75	0.38179365
214	0x3d00c9b9	0.031442378
215	0xbda03179	-0.07821936
216	0xbad2882a	-0.0016062309
217	0xbe000f2c	-0.12505788
218	0x3e1bed8e	0.15227339
219	0x3e4c9177	0.19977365
220	0x3d832128	0.064028084
221	0xbdd11eae	-0.1021093
222	0x3cb383b9	0.021913396
223	0xbdf70d91	-0.120631345
224	0xbe42ca66	-0.19022521
225	0x3e02b835	0.12765582
226	0x3d414404	0.047184005
227	0x3c430032	0.011901902
228	0xbe3fd0fa	-0.18732062
229	0xbd4f597e	-0.050622456
230	0x3e09451b	0.13405268
231	0x3dce63fe	0.10077666
232	0x3db5817d	0.088625886
233	0xbbde92d6	-0.0067924066
234	0xbde8ef6e	-0.113737926
235	0x3e6d37da	0.23165837
236	0x3e5833f3	0.21113567
237	0xbdcc0d8e	-0.09963523
238	0xbdef0ed2	-0.116727486
239	0xbdc79456	-0.0974509
240	0xbdf8402a	-0.12121613
241	0xbe06e9bf	-0.13175105
242	0xbe11d5f4	-0.14241773
243	0x3dba26c7	0.090894274
244	0x3d82c8f5	0.06385986
245	0xbaa016ac	-0.0012213788
246	0x3e2adf16	0.16686663
247	0x3e2f3a46	0.17112073
248	0x3d74acf5	0.059735257
249	0xbe197f9b	-0.14990084
250	0x3c38c287	0.011276848
251	0x3dee1dc9	0.11626775
252	0xbd7b5e6e	-0.061369352
253	0x3da0f3c0	0.078589916
254	0x3b8e57de	0.0043439707
255	0xbd5bae80	-0.053633213

fc.bias f4 [3]
0	0x3ebc5eb1	0.36790994
1	0xbb90b554	-0.0044161472
2	0xbe9fa566	-0.31180876
