new_weights.pth (torch, 39431 bytes, 22 tensors)

conv1.weight f4 [4, 1, 1, 256]
000000 68 bd 13 bf b1 23 30 bf b1 22 36 bf e0 46 3e bf
       -0.57710886 -0.6880446 -0.71146685 -0.74326897
000010 da 54 2a bf c0 6c 20 bf cc ee 20 bf 8a 06 e0 be
       -0.66535723 -0.6266594 -0.62864375 -0.4375499
000020 cf 7a ba be f0 e8 a7 be 6b cb 77 be 01 ea 89 bd
       -0.3642182 -0.32794905 -0.24198692 -0.06734086
000030 89 d4 65 3d d7 da 55 3d 4e e1 1a 3e 86 93 96 3e
       0.056110892 0.052210655 0.1512501 0.29409426
000040 ef 74 a3 3e 1d 0c aa 3e 4e a7 c6 3e b5 f7 84 3e
       0.3192515 0.33212367 0.38799518 0.25970235
000050 0e 1c 81 3e 5a eb 11 3e 26 18 4f 3d 81 f6 fe 3c
       0.25216717 0.14249936 0.05056014 0.031123402
000060 3f 9e 29 3d b8 9c 38 3d b0 3e 97 bb 6c 80 52 bd
       0.04141068 0.045071334 -0.004615627 -0.051392004
000070 6c 7f 62 3d 9b 3e 72 3d 30 6f 9c 3d 54 72 74 3d
       0.0552973 0.059141736 0.07638395 0.059679344
000080 79 1d c4 3d 44 2d 23 3e ed 3b 45 3e 38 1a 0e 3e
       0.09575934 0.15935236 0.19261141 0.13877189
000090 2a 98 0f 3e 68 a5 94 3c 27 b5 06 bd c0 df b8 bc
       0.1402289 0.018145278 -0.032887604 -0.02256763
0000a0 2f 29 f0 bd 40 1a 74 be 71 c3 4a be 6a 55 09 bf
       -0.11726605 -0.23838139 -0.19801117 -0.53645957
0000b0 ef 5e 98 be 09 a0 cd be 71 7b be be 6b 21 9f be
       -0.2975993 -0.4016116 -0.37203553 -0.31080183
0000c0 01 47 84 be 34 08 61 be 06 d4 50 be 42 03 5a be
       -0.25835422 -0.21975785 -0.2039338 -0.21290305
0000d0 33 61 89 be 28 47 8d be f4 0f 72 be e8 65 92 be
       -0.2683197 -0.2759335 -0.23638898 -0.28593373
0000e0 ce cc b0 be a4 98 c1 be 25 e1 bf be 9b 3d be be
       -0.34531254 -0.37811768 -0.3747646 -0.37156376
0000f0 63 b0 a8 be bc 4b 90 be 21 15 70 be bb 22 94 be
       -0.32947072 -0.2818278 -0.2344556 -0.28932747
000100 27 14 67 be 18 7c ca be 49 89 e2 bd f0 2f 66 bd
       -0.22566281 -0.395478 -0.11061341 -0.05619806
000110 ac 88 3e bd be 97 a2 bd 32 ae fb bd 9a f0 d0 bd
       -0.04651706 -0.07939099 -0.122890845 -0.10202141
000120 42 dc a9 bd fa a2 1f bd f0 3d 25 bd 3b 05 9e bc
       -0.08293964 -0.038973786 -0.04034227 -0.019289603
000130 62 20 d3 3d 8d 73 61 3e 2a 29 57 3e 8c 63 c5 3e
       0.10308911 0.22016735 0.21011797 0.3855251
000140 97 b7 d3 3e c5 4c dd 3e d6 76 19 3f 20 b0 0f 3f
       0.41351005 0.43222633 0.59946954 0.5612812
000150 b5 8b 1f 3f 41 c3 3b 3f 25 12 47 3f 37 ec 4c 3f
       0.6232255 0.7334481 0.7776206 0.80047935
000160 75 8e 55 3f 4a 53 59 3f cb 62 4c 3f 7d 7a 56 3f
       0.834205 0.84892714 0.79838246 0.8378065
000170 86 ee 37 3f 5a c3 44 3f d1 84 3b 3f 59 70 4a 3f
       0.7184833 0.7686058 0.73249537 0.7907768
000180 44 e2 37 3f c4 62 37 3f 09 75 2b 3f e8 ab fd 3e
       0.7182963 0.7163508 0.66975456 0.49545217
000190 ed 48 a3 3e e4 65 98 3e 02 42 9c 3e 83 54 65 3e
       0.31891575 0.29765236 0.3051911 0.2239552
0001a0 ae 14 0c 3e 6b e8 dd bb da 77 6d bd df c1 17 be
       0.13679764 -0.006772091 -0.057975627 -0.1482005
0001b0 9f 9e 67 be 4e 61 ad be 58 88 e5 be 19 6e e0 be
       -0.22619103 -0.338633 -0.44830585 -0.43833998
0001c0 2d 2d c0 be 2a c9 9d be 94 51 ca be ef e5 88 be
       -0.37534466 -0.30817538 -0.39515364 -0.26737925
0001d0 52 a5 4f be ee 26 a5 3c 55 68 39 bc 8c 78 ce be
       -0.20277908 0.020160165 -0.011316379 -0.40326345
0001e0 aa 22 cc 3d e0 5f 0e 3e 6c 93 34 3e 72 bb e7 3d
       0.09967549 0.13903761 0.17634362 0.11315049
0001f0 8d 72 be 3d 1f 4d 25 3e 16 c8 3e 3e 0f 26 06 3e
       0.092991926 0.161427 0.18631014 0.13100456
000200 9d b5 34 3e 0a 0d 37 3d 1c 18 f0 3d b7 52 de 3d
       0.17647405 0.04469017 0.117233485 0.1085562
000210 e2 e6 91 3d 12 f8 8d 3d 09 e5 9a 3d d3 da 4e 3d
       0.071241155 0.06932081 0.07563216 0.050501656
000220 d3 65 98 3d 43 e1 42 3d d0 7f 5b 3d 23 4c 06 3d
       0.074412964 0.047578108 0.05358869 0.032787453
000230 b3 db e4 3d 38 38 de 3d fb ca e3 3d c3 6f 8e 3d
       0.11174717 0.108505666 0.111227 0.069549106
000240 27 f4 51 3c 28 92 82 bd a9 4f c6 bd fd c1 9c bd
       0.012814558 -0.06375533 -0.09683163 -0.07654188
000250 88 8a f1 bd 69 19 1f be 72 d1 1c be 58 91 9a be
       -0.11794001 -0.15537037 -0.15314272 -0.30189013
000260 1f 52 a0 be e7 21 92 be 0b 2a 6a be 02 0c 61 be
       -0.31312653 -0.2854149 -0.228676 -0.21977237
000270 a9 4d 4c be 11 2a c6 bd 77 a0 0b be ad 71 2d 3a
       -0.199515 -0.09675992 -0.13635431 0.0006616365
000280 0e ee 0d 3d 98 f4 43 3d 35 05 8b bc 24 eb 8c 3d
       0.034650855 0.047840685 -0.016970256 0.06880787
000290 f2 98 02 3c 41 16 93 3d 08 07 2c 3d 68 ca 19 3e
       0.007971035 0.07181979 0.041998893 0.15018618
0002a0 03 fb 25 3e b2 d1 0f 3e 59 64 0d 3e ce 8f 86 3d
       0.16209035 0.14044836 0.13807811 0.06570397
0002b0 aa db a3 3d f8 90 b4 3d a8 88 20 3e 30 b3 38 3e
       0.08000882 0.08816713 0.1567713 0.18037105
0002c0 c6 74 08 3e a7 60 b2 3d f9 12 f5 3d 2d 70 d8 3d
       0.13325796 0.08709841 0.11966509 0.10568271
0002d0 2e 28 35 3e 6a 78 80 3e 89 bf 72 3e 4e e9 87 3e
       0.17691109 0.2509187 0.23705877 0.26545185
0002e0 ca 21 a5 3e 10 6a a4 3e 9d 0c 92 3e 62 88 42 3e
       0.32252342 0.3211217 0.28525248 0.18997338
0002f0 b4 e4 88 3e 33 c9 57 3e bd 54 08 3e 35 1b a3 3d
       0.26736987 0.21072845 0.13313575 0.07964174
000300 fe f6 a9 3b 43 d1 89 3d 51 c5 0b bd 1a e8 28 be
       0.0051869145 0.06729367 -0.034123722 -0.1649479
000310 41 98 58 be 67 83 7f be 21 df 73 be 7b 84 b2 be
       -0.2115183 -0.2495247 -0.23815586 -0.348667
000320 3d 02 c8 be f8 d8 9a be 4b 2d 9f be f8 a1 8d be
       -0.39064208 -0.3024366 -0.31089243 -0.27662635
000330 90 ac af be 72 80 33 be 44 f6 0f be 12 b7 b7 bd
       -0.34311342 -0.17529467 -0.14058787 -0.08970465
000340 f1 7a c2 3b 79 7b 2e bd b4 6d cf 3d 48 4c 47 3e
       0.005935066 -0.04259822 0.10128346 0.19462693
000350 39 79 07 3e f9 68 58 3e a6 6c 82 3e fe dd 37 3e
       0.13229837 0.21133794 0.25473517 0.17955777
000360 b0 84 39 3e 59 2c 38 3e a1 28 3a 3e 68 79 93 3d
       0.18117023 0.17985667 0.18179561 0.07200891
000370 43 46 b5 b9 17 9a 33 3d f1 d0 3a bd 79 c7 01 3d
       -0.0003457536 0.043848123 -0.04560942 0.031684373
000380 00 81 6d bd 41 54 15 be ce 39 02 be 85 6d 97 be
       -0.057984352 -0.14582922 -0.12717363 -0.29575744
000390 14 98 ad be a4 d8 ac be f5 4d ce be 7e 1b f0 be
       -0.3390509 -0.33759034 -0.40293851 -0.46895975
0003a0 95 c6 f8 be 58 9e e2 be 57 f8 d7 be 97 7a bb be
       -0.48589006 -0.44261432 -0.42181656 -0.36616966
0003b0 1b 33 89 be 66 0d 0a be 7c cd 7e bb a1 37 d9 3d
       -0.26796803 -0.13481674 -0.0038879802 0.106063135
0003c0 c2 1f 32 3e 2f 79 c1 3d 91 0d 27 3e d8 44 19 3e
       0.17394927 0.09446942 0.16313769 0.14967668
0003d0 e6 e3 87 3e 52 8e f1 3d 52 92 53 3e 38 71 f8 3d
       0.2654106 0.117947236 0.20661286 0.1213097
0003e0 9a f5 de 3c ea 81 7d bd 6b ec 34 be 29 c7 43 be
       0.027216721 -0.061891474 -0.17668311 -0.19118942
0003f0 22 85 c4 be 15 b6 cf be 90 13 18 bf 4a e2 28 bf
       -0.38382822 -0.40568605 -0.5940485 -0.6597029

batchnorm1.weight f4 [4]
000000 2b 46 dc 3f e3 dc d9 3f c6 62 12 40 84 b9 df 3f
       1.7208914 1.7020534 2.2872787 1.747849

batchnorm1.bias f4 [4]
000000 76 20 ee 3d d4 41 63 be b9 c4 76 3e e9 fe 94 3e
       0.11627285 -0.2219308 0.24098481 0.2910073

batchnorm1.running_mean f4 [4]
000000 ac b1 66 bf e5 2f 61 be ad cc 63 3e 5a a3 cc bf
       -0.90114856 -0.21990927 0.22246046 -1.5987351

batchnorm1.running_var f4 [4]
000000 9b 56 31 49 a0 43 0f 48 25 df 9b 47 6b a8 3b 49
       726377.7 146702.5 79806.29 768646.7

depthwise_conv.weight f4 [8, 1, 1, 32]
000000 a2 ec 4e bf 9c 9a 03 bf 34 f5 cf be 20 78 43 be
       -0.80829823 -0.5140779 -0.40616763 -0.19088793
000010 6d 8a 4d be 19 b7 15 bc 85 9c 2b 3e 89 9a 83 3e
       -0.20072336 -0.009137892 0.16758926 0.25703838
000020 50 ec 6a 3e 3c b8 9b 3e 07 d9 ff 3e 53 c4 0f 3f
       0.22941709 0.30413997 0.49970266 0.5615894
000030 c2 c1 ac 3e 2b 70 14 3f 2f b0 9a 3e af ec 04 3f
       0.33741575 0.57983655 0.30212542 0.5192365
000040 c4 18 6f 3e 9d 98 2f 3e ad 2a 92 3e 4d 91 2c 3e
       0.23349291 0.17148061 0.28548184 0.16852303
000050 dd 7b a0 3d 0d b1 b5 3d d9 75 59 3c 41 9f 02 bd
       0.07836125 0.088716604 0.013272726 -0.031890158
000060 4b 23 8c bd 44 64 d1 bd 2f 7a 3d bc cd 88 49 bb
       -0.06842669 -0.10224202 -0.011564775 -0.0030751706
000070 b9 1e 37 be 59 99 25 be 4d ee a0 3d a1 8b 4b be
       -0.17882814 -0.16171779 0.07857952 -0.19877483
000080 71 f2 8d 3e a6 7e 7e 3e 57 be a5 3e 51 c8 2f 3e
       0.2772403 0.24853 0.3237178 0.17166258
000090 44 17 09 3e 2f 49 0b 3d c4 14 56 3d db 99 8c bd
       0.13387781 0.03400534 0.052265897 -0.06865283
0000a0 d9 4f 70 3d 00 11 88 3c c4 56 af bc 4e f7 6b 3c
       0.0586699 0.016609669 -0.021403678 0.014402224
0000b0 f7 54 88 3e 7b 30 11 3e 1c f2 0f 3d db 8e 11 3e
       0.26627323 0.1417865 0.035143003 0.14214651
0000c0 04 03 0d 3e 27 9a 28 be c6 7d bc bd 91 2a b1 be
       0.13770682 -0.16465054 -0.09203677 -0.34602788
0000d0 6c 38 0f bf 77 dc 05 bf 17 63 37 bf 1f f9 23 bf
       -0.5594547 -0.5228953 -0.71635574 -0.64052004
0000e0 79 0f 5b bf 5b a1 49 bf a2 ba 13 bf 21 56 a6 be
       -0.85570484 -0.78761834 -0.57706654 -0.32487586
0000f0 e0 27 1e be 19 a4 94 3b 73 3b d0 3e 5c 61 b1 3e
       -0.15444899 0.0045361635 0.40670356 0.34644592
000100 0a 2d e5 be 76 c2 46 be ab de e5 3d dd 93 62 3e
       -0.44760925 -0.19410118 0.11224111 0.22126718
000110 26 c1 f2 3e 85 2c 09 3e aa e0 a0 3d 24 2d 61 3e
       0.47412986 0.13395889 0.07855351 0.21989876
000120 2b b0 7c bd 1a 0b 40 be 51 c6 9e be d4 ce 32 be
       -0.061691444 -0.18754235 -0.31010678 -0.17461711
000130 35 0d 05 be dc 6b 17 3e 7e 9c 06 3f d1 1d 17 3f
       -0.1299332 0.14787239 0.5258254 0.5902987
000140 ba 92 5e 3f 98 17 2d 3f d0 5e ed 3e 8e 2f 2d bd
       0.86942637 0.67614126 0.463614 -0.04228168
000150 1f de 42 be 4e ba d9 be 01 f8 1a bf cf 39 d8 be
       -0.19030045 -0.42524952 -0.60534674 -0.42231604
000160 1b 7c ba be 31 ab a3 be c7 9e 32 bd 22 1b b6 bd
       -0.3642281 -0.31966546 -0.043608453 -0.08891894
000170 43 1b 7c bd 1e ff 0c bd 63 af cf 3d 0e 0c 30 bd
       -0.061549436 -0.034422986 0.10140874 -0.042980246
000180 24 18 b7 bd fe be 48 be 99 9c e7 3c 08 32 6e 3d
       -0.08940151 -0.19604108 0.028272914 0.058153182
000190 05 8d 30 3e cb 98 06 bd 67 a5 4b 3d a1 a0 94 be
       0.17241295 -0.03286056 0.049718287 -0.290288
0001a0 55 fc cc be 65 66 8c be 05 5a 74 bd 3b 3f ff bd
       -0.40036264 -0.2742187 -0.05965616 -0.12463232
0001b0 7f 24 19 3e 3b 80 a8 3e 8a 11 a6 3e 7b 1d b6 3e
       0.14955328 0.32910332 0.32435256 0.35569367
0001c0 df af 4d 3d 23 ce f6 bd 7e bf 19 bf dc 11 c9 be
       0.050216552 -0.12051036 -0.6005782 -0.39271438
0001d0 7a 25 3a bf 3e bf 03 bf 30 74 81 be c7 10 0a 3e
       -0.72713435 -0.5146369 -0.25283957 0.13482963
0001e0 d1 67 1f 3f 7e 5d 29 3f fa c4 25 3f 40 8e 97 3e
       0.62267786 0.6615828 0.6475369 0.29600716
0001f0 99 a6 d1 3d 8f 68 01 3e 30 3c e5 bd e8 e8 70 3e
       0.10236854 0.12637542 -0.111931205 0.23526347
000200 d2 9d 12 be b4 a3 22 bd c2 a1 77 bc b2 aa 49 3e
       -0.14318016 -0.0397069 -0.01511425 0.19694021
000210 3e d7 6e be 8f 93 dd be 77 73 1b bf 8c 21 d3 be
       -0.23324296 -0.4327664 -0.6072306 -0.41236532
000220 b5 8f 7c be fc 52 19 be 93 36 a6 3e 83 5c 0d 3f
       -0.24664195 -0.14973062 0.32463512 0.55219287
000230 8d 80 06 3f e9 bb 13 3f ba 33 b1 3e fc 23 02 bd
       0.525399 0.57708603 0.34609777 -0.0317726
000240 41 22 d6 bd 0c 61 a1 be e1 0c c7 be 4d b3 83 be
       -0.10455752 -0.31519353 -0.38877013 -0.25722733
000250 bd cd 9f bd 80 2e c1 3e c8 92 f3 3e 9c 63 c6 3e
       -0.07802913 0.3773079 0.47572923 0.3874787
000260 31 cd 13 3e 79 ff 38 3d a6 3f bf be 2b ea a3 be
       0.14433743 0.045165513 -0.37353247 -0.32014593
000270 25 c5 b0 bd 22 25 83 bd f2 52 a1 3e b6 b6 db 3e
       -0.08631352 -0.06403567 0.31508595 0.42912835
000280 1c f5 28 bd da cc 39 3e 73 73 d8 3e 8e 26 0f 3f
       -0.04124938 0.18144551 0.4227558 0.55918205
000290 58 04 d5 3e 65 04 08 3d 49 63 df bd b4 ef 0c bf
       0.41604877 0.033207316 -0.10907609 -0.5505326
0002a0 29 3f 28 bf 50 85 ff be a8 4b e1 be e5 ea f9 bc
       -0.65721375 -0.49906397 -0.44003034 -0.030507514
0002b0 af 2e aa 3e d5 a9 ec 3e ec f6 a1 3e 68 12 8c 3e
       0.33238742 0.46223322 0.316337 0.27357793
0002c0 9b 9b 8b bd 03 47 9e be 7b cb b2 be ba 43 8b be
       -0.06816789 -0.30913553 -0.34920868 -0.2720011
0002d0 c5 46 51 be 54 cf 43 3e d4 5b c7 3e 6e f9 e2 3d
       -0.20437153 0.19122058 0.38937247 0.11082731
0002e0 de 72 fc 3c 63 5d 11 3e 9c c2 d0 bd 55 1d 9c be
       0.030816492 0.1419578 -0.10193369 -0.3049113
0002f0 ab 0d 09 be 73 46 62 be b0 c7 0e 3e 61 e1 e9 3d
       -0.1338412 -0.22097187 0.13943362 0.11419941
000300 2c a8 d0 be e9 3c 85 be 86 0c b5 be 71 7c af be
       -0.40753305 -0.26023033 -0.35361117 -0.3427463
000310 44 21 7d be a3 f8 2d be 17 02 bc be 61 b0 6e be
       -0.24719721 -0.16989379 -0.36720344 -0.2330947
000320 04 c3 ad be e4 91 ac be 77 a3 bc bd 3c 47 b1 be
       -0.33937848 -0.33705056 -0.09210866 -0.3462466
000330 16 34 0e be 05 3f 51 be 61 af 88 bd 83 a0 0a bd
       -0.13887057 -0.20434196 -0.06674076 -0.033844482
000340 05 0a b4 3d 3d 0b 23 bc eb 07 c1 bc f2 f4 66 3d
       0.087909736 -0.00995141 -0.023563346 0.05638594
000350 77 b8 55 3e 0a 1d 22 3e 15 f1 13 bc 26 ec 8c 3e
       0.20871149 0.1583139 -0.009029646 0.27523917
000360 26 f7 9c 3e 80 50 84 3e d4 db de 3e 51 8a 13 3f
       0.3065731 0.25842667 0.4352709 0.5763293
000370 3a 55 e4 3e 87 4e c8 3e 5d aa db 3e af e8 0d 3f
       0.44596273 0.39122412 0.42903414 0.5543317
000380 fd d4 a7 3e 31 fa ef 3d 33 e3 5e 3e 05 83 c2 3d
       0.32779685 0.11717642 0.21766357 0.09497646
000390 84 ff c1 3e 91 6f 7d 3e d2 4b c6 3e 50 bd 86 3e
       0.37890255 0.2474959 0.3872972 0.2631631
0003a0 ac c3 36 3e 65 e4 b6 3e b5 44 98 3e 8f ca 10 3e
       0.1784808 0.35721126 0.2973992 0.1413977
0003b0 16 3a 9e 3e b3 31 ce 3e ff 31 53 3e 17 bc fa 3d
       0.3090369 0.40272292 0.20624541 0.122429065
0003c0 ad b1 d7 bb 10 88 42 bc 6b a7 b5 bd 19 77 21 be
       -0.00658246 -0.01187326 -0.08869823 -0.15768088
0003d0 aa f7 69 be 9c 1b 70 be 92 bd d1 be d4 02 67 be
       -0.22848383 -0.23448032 -0.40964943 -0.22559673
0003e0 3d df ec be 5c 8b df be 8d 5b 00 bf 8e 9c bd be
       -0.46264067 -0.4366101 -0.50139695 -0.37033504
0003f0 34 56 fe be de 0a 22 bf d4 e1 91 be 5a 22 f8 be
       -0.49675143 -0.6329783 -0.28492606 -0.48463708

batchnorm2.weight f4 [8]
000000 f2 92 eb 3f b1 c5 d8 3f 3d da 04 40 3f b8 09 40
       1.8404219 1.6935331 2.0758202 2.1518705
000010 ca 32 24 40 d3 37 21 40 2a ac df 3f 98 70 fb 3f
       2.5656 2.5190322 1.7474415 1.9643736

batchnorm2.bias f4 [8]
000000 34 4d fc be 9d f2 c0 be 26 02 07 bf 93 4f c6 be
       -0.4927765 -0.376851 -0.52737653 -0.38732585
000010 80 91 06 bf bc f7 01 bf 10 31 01 bf 66 25 e1 be
       -0.52565765 -0.5076864 -0.5046549 -0.43973845

batchnorm2.running_mean f4 [8]
000000 85 ad 69 3e b4 7e b1 be c0 f0 d0 bd 04 a2 17 bd
       0.22820099 -0.3466698 -0.102021694 -0.037019745
000010 8b 5a c1 3d 48 59 2e bd b1 97 81 3d e7 08 96 be
       0.09441098 -0.042565614 0.06327761 -0.29303667

batchnorm2.running_var f4 [8]
000000 e3 7d 19 42 e8 b9 81 42 28 28 fa 41 15 66 aa 41
       38.372936 64.8631 31.269608 21.299845
000010 e8 72 00 42 3a bb be 41 d1 2f 85 42 e3 8b 9c 42
       32.112213 23.84142 66.59339 78.27322

sep_conv.weight f4 [16, 8, 1, 32]
000000 83 62 26 3f 03 66 1d 3e 7c 64 07 be a2 53 00 bf
       0.64994067 0.15370946 -0.13221925 -0.50127614
000010 3a 9d 13 bf 8d 4e 9e be 4f 6f c6 bd 20 0c 93 3e
       -0.57661784 -0.30919304 -0.09689199 0.28720188
000020 62 47 d1 3e c9 2a fd 3e 34 30 e4 3e 85 68 a0 3e
       0.40874773 0.49446705 0.44568026 0.31329742
000030 82 a4 0d 3d 97 5c 86 bd a5 66 80 be 3c 58 c9 be
       0.034580715 -0.06560629 -0.25078312 -0.3932513
000040 6a b4 c9 be e4 41 6a be ba b8 2a bd 0b 87 c1 3d
       -0.39395458 -0.22876698 -0.041680075 0.094495855
000050 4d 8e 9d 3e 43 a2 a5 3e aa af c5 3e 43 be a7 3e
       0.3077263 0.32350358 0.38610584 0.32762346
000060 af 8c 64 3e 88 22 ec 3d e0 e4 22 be 7a 12 a4 be
       0.22319292 0.11530024 -0.15907621 -0.32045346
000070 95 a3 cd be 03 73 b4 be 59 88 a8 bd 9c 46 ba 3e
       -0.40163866 -0.35243997 -0.08229131 0.36381996
000080 9a 02 2a 3e 36 a0 0a 3e 83 77 94 3b 85 e7 14 bd
       0.16602555 0.13537678 0.0045308485 -0.036353607
000090 73 59 1d bd 9d 76 5f be 99 f0 e3 be 5e d6 a4 be
       -0.038415384 -0.21822591 -0.445195 -0.321948
0000a0 0b 0f 55 be 49 53 d7 3d 70 39 a9 3e 11 a8 bb 3e
       -0.2080652 0.10513932 0.33051634 0.36651662
0000b0 a3 2b f9 3e 92 01 b1 3e 01 52 78 3e 32 48 ae 3c
       0.48666105 0.3457151 0.24250032 0.02127466
0000c0 f5 98 15 be 9b 8e 0d be 6e e0 87 be c2 25 aa be
       -0.1460913 -0.13823931 -0.26538414 -0.33231932
0000d0 f6 dd 4d be b7 ba 38 bb 36 c7 14 3e 51 27 ba 3e
       -0.20104203 -0.0028187463 0.14529118 0.3635812
0000e0 fb 43 cd 3e d3 78 a1 3e 87 3c d8 3d 19 a7 76 bc
       0.40090927 0.31537494 0.1055842 -0.015054488
0000f0 97 f6 63 be 2f b8 94 be 6f cc 4c be b1 80 8a 3a
       -0.22262035 -0.2904677 -0.1999986 0.0010566917
000100 70 e5 12 3e 97 54 12 3e 9d 90 84 3e a0 30 2a 3e
       0.14345336 0.14290081 0.2589158 0.16620111
000110 a0 ee f3 3c 2c 41 e3 3d 5f b8 44 3c 45 2e 87 bd
       0.029776871 0.11096415 0.012006848 -0.06600622
000120 9f 2c 88 be 0e a6 cc be 35 92 ee be 44 60 79 be
       -0.26596543 -0.3997044 -0.46595922 -0.24353129
000130 1f 9c 41 be 8a 80 e0 bd 76 5d 8a 3d 7d 44 9b 3e
       -0.18907212 -0.10962017 0.067561075 0.3032569
000140 df 30 d4 3e 9a 0c 0b 3f 05 d5 cd 3e 52 12 5f 3e
       0.41443536 0.54316103 0.40201584 0.21784332
000150 57 ee 33 3c 97 4b 23 be 22 95 93 be 10 65 f2 be
       0.010982118 -0.15946804 -0.28824717 -0.4734273
000160 3c 80 0c bf e1 22 04 bf c6 0c 70 be 0e 8b 83 bd
       -0.5488317 -0.5161572 -0.23442373 -0.06423007
000170 e1 12 f8 3c d4 17 2c 3d 19 6a 8b 3e b8 33 75 3f
       0.03028244 0.04201491 0.27229384 0.9578204
000180 3f 37 3d 3d 56 83 ba bd 0d 24 8f be 17 91 ad be
       0.046195265 -0.091070816 -0.27957192 -0.33899757
000190 c5 ab 0a be 61 a3 4f bd e7 a8 3b 3e c5 4d 5b 3e
       -0.13542087 -0.05069292 0.1832615 0.21416385
0001a0 ca 25 89 3e dc c3 cc 3e a1 de ad 3e 53 2e a5 3d
       0.26786643 0.3999318 0.33958915 0.08065476
0001b0 04 da 82 bd f7 74 87 be 75 41 e5 be d7 70 06 bf
       -0.063892394 -0.26456425 -0.44776502 -0.5251593
0001c0 ae ab d0 be 1a 63 b7 be a7 99 04 be a3 31 e2 bc
       -0.4075598 -0.35817796 -0.12949239 -0.02761156
0001d0 47 cb 22 3e 06 93 0a 3f 8d 2b 2e 3f 0f c7 ff 3e
       0.15897857 0.5413059 0.68035203 0.49956557
0001e0 2f 61 9f 3e ae 3c 82 3d 49 6a 5a be 51 fa f2 be
       0.31128833 0.0635923 -0.21329607 -0.474566
0001f0 48 ec 26 bf c4 fb f8 be 5f 70 5b be b3 f7 7f 3e
       -0.65204287 -0.48629582 -0.21429585 0.24996834
000200 f4 ef b6 3e af f6 9e 3e c4 5e 76 3e e9 5b e5 3d
       0.35729945 0.3104758 0.24059588 0.11199171
000210 51 3b 7b 3d d0 74 af be a6 3f 29 bf 55 bb db be
       0.061335865 -0.34268808 -0.66112745 -0.4291636
000220 f5 98 a2 be bc d9 e1 bd ae 0e 91 3e 5e f9 06 3f
       -0.31757322 -0.11027858 0.28331512 0.52724254
000230 58 9a 2d 3f 53 84 db 3e 97 fb ec bd ce aa 90 be
       0.67813635 0.42874393 -0.115714245 -0.28255314
000240 2b df e7 be a0 88 51 bf 89 2b 45 bf c1 10 d6 be
       -0.4528745 -0.818491 -0.77019554 -0.41809657
000250 c1 71 2e be 45 f4 5c bd 2c 80 9e 3d 38 f9 99 3e
       -0.17035581 -0.05394389 0.077392906 0.3007295
000260 96 78 de 3e f5 5c 9d 3e 04 a7 3b 3e c1 7c 4a 3c
       0.43451375 0.30734983 0.1832543 0.012358845
000270 2c 0c bf 3b 26 0d 9c be e3 b7 bd be fc ce 8e be
       0.0058303084 -0.3047878 -0.37054357 -0.27892292
000280 f2 f0 ce bd 05 e9 52 be 57 b7 f9 bd 7f ad 32 bb
       -0.101045504 -0.20596702 -0.121931724 -0.0027264056
000290 1f 27 a5 bc d3 62 c8 bc e5 fe 80 3e a5 cd e2 3e
       -0.020160256 -0.024461186 0.2519447 0.4429752
0002a0 b4 08 f5 3e 55 51 e2 3e 10 63 62 3e a9 c5 7b be
       0.47858202 0.44202676 0.22108102 -0.2458712
0002b0 13 82 31 bf da c5 5e bf 5a 13 19 bf 4b c3 f0 be
       -0.693391 -0.8702065 -0.59795153 -0.47023997
0002c0 4b 19 5f be b0 09 6e 3e 20 0d 05 3f ec 87 d1 3e
       -0.21786992 0.23245883 0.5197315 0.40924013
0002d0 0b 9a f5 3e 24 a2 d2 3e 95 5b 89 3d 5d e2 b7 be
       0.47969088 0.41139328 0.06706921 -0.3591489
0002e0 46 fc 25 bf f0 9f 49 bf 9c c5 56 bf bf af 14 bf
       -0.64838064 -0.7875967 -0.8389528 -0.5808067
0002f0 5c 2b 99 be 4f ee d5 3d 18 b1 08 3f e8 99 28 3f
       -0.29915893 0.104458444 0.53395224 0.6585984
000300 13 5f e0 bd a6 76 02 be 54 97 7a 3a db d4 c9 bc
       -0.10955634 -0.12740573 0.0009559293 -0.02463763
000310 e4 eb 6c 3d 7a 9d 25 3e 79 9a f3 3d 85 47 e8 3c
       0.05784215 0.16173354 0.11894698 0.028354416
000320 49 97 e2 3c 7c 32 9e bd 04 a3 24 be 6b 9f 0a be
       0.027660029 -0.07724473 -0.1607781 -0.13537376
000330 f7 0a a0 bd ce ce d3 bd df cb 58 bd 72 3e 98 bd
       -0.078145914 -0.10342179 -0.0529288 -0.074337855
000340 d6 db 60 3d 60 63 73 3d fc 06 c3 3d 6f 49 7b bc
       0.054897152 0.059420943 0.095228165 -0.015337332
000350 f8 b6 af 3c 3f a2 34 bd 7b 16 d7 bd 24 99 ac bd
       0.021449551 -0.044100042 -0.10502335 -0.08427647
000360 38 0f 9a bd e2 c3 1a 3d c2 a7 aa 3d e5 9c bd 3d
       -0.07522434 0.037784465 0.083327785 0.09258441
000370 a0 8f 93 3d 63 12 04 3d 50 82 59 3d f7 6c 9b 3c
       0.07205129 0.032244097 0.05310279 0.018972857
000380 12 49 e8 3d 7f ab 07 bc e4 14 da 3d 04 d1 f5 bd
       0.11342062 -0.008280634 0.10648516 -0.12002757
000390 c3 d9 be bd 6a 77 2f bd 58 b9 5b 3d 7f 3e af 3d
       -0.093188785 -0.04283849 0.053643554 0.08556842
0003a0 b0 63 e3 3d 0b 09 08 3d 14 15 4a bc 8d 47 5b bd
       0.11102998 0.03321175 -0.012334127 -0.053535033
0003b0 73 b2 84 bd 32 c6 d4 bd e8 ea 5b bd 3b ea 83 3d
       -0.06479349 -0.10389365 -0.05369082 0.0644116
0003c0 c5 d5 cf 3d 0f e8 83 3d e1 a9 a3 3d f1 a2 62 3e
       0.10148195 0.06440746 0.07991386 0.2213247
0003d0 e9 ae ff 3d b1 29 15 3e ed c6 45 3c f5 a7 87 bd
       0.12484533 0.14566685 0.012071353 -0.06623832
0003e0 af 33 f0 bd ef f2 16 be ed bd 12 be 80 51 e8 bd
       -0.11728608 -0.1474111 -0.14330263 -0.1134367
0003f0 36 04 f6 3c 6e 1c 22 3d 91 56 cf 3c 8f bf 71 bd
       0.030031305 0.039577894 0.025309833 -0.059020575

batchnorm3.weight f4 [16]
000000 79 ea 5b 40 db 6e 07 3f 7a 8e 22 3f 5f 79 51 40
       3.436186 0.5290353 0.6349865 3.273033
000010 a1 5e 27 40 66 4b 0d 3e c2 d7 96 3f 70 7c 0a 3f
       2.6151507 0.13798293 1.1784594 0.54096127
000020 2c c4 5d 3e 6f be 01 3f cc db 7c 3e 2c a7 b6 3f
       0.21656865 0.50681204 0.24693221 1.4269767
000030 d7 5b b6 3f e1 bb 5d 3e da 9b 49 40 e4 70 d7 3f
       1.4246777 0.21653701 3.1501374 1.6831326

batchnorm3.bias f4 [16]
000000 9c bf 06 bf 53 19 62 bd 87 ca 08 3e eb 75 05 c0
       -0.5263612 -0.055199932 0.13358508 -2.0853221
000010 e5 dd 8a 3e 78 1f 0d 3d 35 e2 ce 3e 8a 9e 14 3e
       0.27122417 0.03445384 0.40406957 0.14513603
000020 4b 6c 00 be f3 0a 2a 3e b2 2e f2 3d 3f 0e e9 bc
       -0.1254131 0.1660574 0.11825313 -0.028449176
000030 a5 f7 75 3f 5a f8 f6 3d fb 1b 3d 3f ef cd b6 be
       0.96081 0.12059088 0.7387082 -0.3570399

batchnorm3.running_mean f4 [16]
000000 12 3b 81 bf 0f cc b2 bf 14 a9 11 40 1d 4e 33 c1
       -1.0096152 -1.3968524 2.2759447 -11.206571
000010 0e 9a 9b 3f 3a b0 07 41 17 b7 f9 40 c2 98 1d bf
       1.2156389 8.480524 7.8036 -0.61561215
000020 08 fd 74 3e b2 01 12 41 ce 29 2f 41 82 86 9e 3e
       0.23924649 9.125414 10.947706 0.30961996
000030 d3 de 09 41 32 6e 34 41 ba ac 19 41 ff f5 36 3e
       8.6169 11.276903 9.60467 0.17867278

batchnorm3.running_var f4 [16]
000000 6d e5 50 43 a6 67 a4 43 66 97 50 43 31 f0 04 44
       208.8962 328.80975 208.5914 531.753
000010 c2 ff 2c 43 56 4a f0 43 a5 b0 b2 43 a2 2a cd 43
       172.99905 480.58075 357.38004 410.33307
000020 f6 35 7c 43 d9 1c ce 43 f5 82 fe 43 46 e8 62 43
       252.21078 412.22537 509.0231 226.90732
000030 91 88 b2 43 c7 13 03 44 2b 60 e9 43 78 25 62 43
       357.06693 524.309 466.7513 226.14636

depthwise_conv2.weight f4 [32, 1, 28, 1]
000000 e3 df 1a be f8 d5 56 bd 10 42 a2 bd 52 e8 8f 3d
       -0.15124469 -0.05245015 -0.07922757 0.070267335
000010 1d 57 18 3e 7e 10 a5 be 2f 14 62 bc 46 95 fc 3d
       0.14876981 -0.32239145 -0.013798757 0.12333159
000020 af 22 d8 be 28 40 03 3f 1a 26 4a be 0b 1e 1e bf
       -0.4221396 0.5126977 -0.19741097 -0.6176459
000030 dc 0c 18 bf 9f d8 81 3e f9 3f 46 bf c8 0d 7e 3e
       -0.5939462 0.2536058 -0.77441365 0.24809945
000040 6f 4b eb 3c 19 59 5f be 14 50 ce 3c 4d 61 be 3e
       0.028722493 -0.21811332 0.025184669 0.3718361
000050 91 63 7a bc f8 dd 88 be 1b da 7a 3d 2e 45 75 be
       -0.015282528 -0.2673185 0.061243158 -0.23952171
000060 35 b4 12 be 72 58 1e 3e f0 1f 5d bf 51 c1 02 3f
       -0.14326556 0.15463427 -0.8637686 0.5107623
000070 5e 94 b7 3e 50 a7 e6 be e1 ef b3 3e ee dc 23 bc
       0.35855383 -0.45049524 0.3514395 -0.010001404
000080 ab ff 1a bf 75 4f 16 3e 36 89 43 be f9 4a 78 3d
       -0.6054637 0.14678748 -0.1909531 0.060618374
000090 38 20 87 3e 52 82 51 bf 75 51 95 be f5 39 ec 3e
       0.26391768 -0.8183948 -0.2916371 0.46137968
0000a0 b5 e2 9e be 88 12 a3 bd 3a 2f 44 be c0 d6 79 3e
       -0.3103234 -0.07962519 -0.1915864 0.24398327
0000b0 27 51 4f 3e 3f 57 1f bf bc e8 cb bd ba 25 09 bf
       0.20245801 -0.622425 -0.099565 -0.5357319
0000c0 3e 39 a1 bd 75 b4 05 3f 57 e9 26 bc f2 0f 8f 3d
       -0.07872246 0.5222848 -0.0101874685 0.06985463
0000d0 2e 64 27 3e fb 7e 07 3e 4f c4 03 3e 22 81 0b bd
       0.1634681 0.13232033 0.12867855 -0.034058698
0000e0 4e 26 eb bd a5 53 17 bd 8f dc 69 3e 88 e7 b4 3c
       -0.114819154 -0.036945004 0.22838043 0.022083059
0000f0 cf 58 0a bd 1f a8 aa 3e d0 fd b8 3e 0d 8f 07 bf
       -0.0337761 0.3333139 0.36131144 -0.52952653
000100 b6 75 9a 3e 7a 2a 33 be 3a 6b 00 3d e9 1b 37 bf
       0.3016793 -0.17496672 0.03135226 -0.7152696
000110 ee 49 8d be 30 77 aa 3d e2 40 bf 3e 24 04 04 bf
       -0.27595466 0.083235145 0.3735419 -0.5156882
000120 2c 46 84 3e 15 9f 21 3f ce 84 ee bd 58 13 d4 3e
       0.25834787 0.63133365 -0.11646424 0.41421008
000130 11 8d 3d bf 64 11 12 3f cd f4 15 be 87 60 3b 3d
       -0.74043375 0.57057786 -0.14644165 0.045746353
000140 96 fc a7 be 2c 91 52 be 88 b5 f0 bd 19 8d f1 bb
       -0.32809895 -0.20563191 -0.11753374 -0.0073715565
000150 f9 a3 6c be 5f 92 82 3e b3 91 54 3e 77 b7 92 3c
       -0.23109426 0.25502297 0.20758705 0.017909748
000160 a6 4e 71 3d 6f fe cd 3e cb 85 8f be 32 b0 d8 bd
       0.058912896 0.4023318 -0.28031763 -0.105804816
000170 9c 6c 57 be 39 38 0f bf 4c e3 2f be d9 ac aa 3d
       -0.21037525 -0.55945164 -0.1717655 0.08333749
000180 c0 d2 3f bf b0 d8 f4 bd d2 47 0c 3f 87 54 69 be
       -0.74930954 -0.11955392 0.5479709 -0.22786151
000190 63 41 87 3e c8 9e 3b 3e 13 68 f6 be 4d 9d 0d 3f
       0.26417074 0.18322289 -0.48126277 0.55318147
0001a0 af 5b e9 3e c8 82 52 3e d0 37 07 bf 86 b0 91 3e
       0.45577762 0.20557702 -0.5281954 0.2845499
0001b0 fa 88 38 be ab 17 fa be 7b fd 15 3e f0 ce ca be
       -0.18021002 -0.48846182 0.14647476 -0.39611006
0001c0 de 12 29 3d a6 23 86 3e 9c e0 d7 3e ec 1c a6 be
       0.04127776 0.26199073 0.4216355 -0.3244394
0001d0 6b cc a8 3e 9e a4 c3 bd 22 96 79 3d 00 98 a2 3e
       0.3296846 -0.095528826 0.060934193 0.31756592
0001e0 7f 56 ff be 4e 3d 22 3e 2f 5c 97 3e cd 35 81 be
       -0.4987068 0.15843698 0.29562518 -0.2523636
0001f0 ce 70 f6 3e 15 2a 85 be 23 27 37 bd 66 ca 0a 3e
       0.48132938 -0.2600867 -0.044715058 0.13553771
000200 5d 9d 50 3f cc c8 bf be 53 c0 c7 3e a9 6b 45 be
       0.8149012 -0.37457883 0.3901392 -0.1927935
000210 d5 c3 13 be 3b df 0b 3f c3 5d d1 3e 6d 90 f4 be
       -0.14430173 0.546375 0.40891847 -0.47766438
000220 59 1e 35 3e 3f 33 72 bc 65 1e c0 3e 95 bd 53 3d
       0.17687358 -0.014782726 0.3752319 0.05169447
000230 da d0 22 bd e5 09 c3 be 1f e1 ab 3e 26 02 ae be
       -0.039749958 -0.38093486 0.3357019 -0.33986014
000240 d1 45 57 3e 71 e7 a9 bd e9 96 a1 be 17 b9 eb 3d
       0.21022727 -0.08296097 -0.31560448 0.115099125
000250 ca 73 ab 3d b2 90 c9 be 7f 6e bc 3e a6 72 2b be
       0.083716944 -0.39368206 0.36803052 -0.16742954
000260 08 a6 2a bf 2c ae b1 3e 3a 28 18 bf 9c b2 6a 3e
       -0.66659594 0.34703195 -0.5943638 0.22919697
000270 b1 b3 03 3e 01 9a 1a bf c7 68 8a 3e e8 5f 34 be
       0.12861516 -0.6039124 0.27033064 -0.1761471
000280 33 9a 50 be 13 26 dd 3d d0 4d 27 3e f4 56 54 bf
       -0.20371322 0.10798278 0.16338277 -0.8294518
000290 3d 5e 3a 3e e6 25 46 be b9 c5 61 3e 33 4a 94 be
       0.18200012 -0.19350395 0.22048081 -0.2896286
0002a0 02 78 1d 3e 5a fd a0 be 37 28 90 be 6b 0e 25 be
       0.1537781 -0.31443292 -0.28155681 -0.16118781
0002b0 3b 5c fa 3d ec fc e5 3d f0 65 33 3f 8d 95 3d 3e
       0.12224623 0.11229882 0.7007742 0.1851408
0002c0 8a d2 b3 be 71 4e da 3d 30 d2 68 bd 2e a5 9e 3e
       -0.35121566 0.10659493 -0.056841075 0.30985397
0002d0 98 c8 a0 3d 03 fa 53 be f9 f1 fd 3c c1 4c a7 be
       0.0785076 -0.2070084 0.03099917 -0.32675746
0002e0 82 b3 8d 3e ab 1e a4 3d 15 b8 85 be 4e fd 23 3d
       0.27676016 0.08013662 -0.26117006 0.040036492
0002f0 97 fe af 3d 6f 37 ee 3e 37 15 e2 be 41 2f 75 3e
       0.08593481 0.46526667 -0.4415681 0.23943807
000300 70 92 f5 3e fd 4a 95 be 60 fb 7b bf 1f a5 80 3e
       0.47963285 -0.29158774 -0.9843044 0.25125977
000310 a0 3d 42 be ab 2e d6 3e 3a a3 c0 be cb 41 06 be
       -0.1896882 0.4183248 -0.37624532 -0.13111036
000320 c6 17 94 3e f7 ff cf 3c c1 08 cb be 78 8f 6e 3e
       0.28924388 0.025390608 -0.39655116 0.23296916
000330 7b 50 e2 3d 75 c6 cd be 8b 0a 55 be 89 24 40 bd
       0.11050507 -0.40190473 -0.20804803 -0.046909843
000340 4c 80 98 3e 58 2d 41 bf 5b 88 3f 3d bb 55 aa 3e
       0.29785383 -0.75459814 0.046760898 0.33268532
000350 41 30 1e be f5 22 af be 9f 38 30 3f 74 52 f4 be
       -0.15448095 -0.34206358 0.68836397 -0.47719157
000360 9a bb 1b bd 8c 30 04 bc 49 8a a2 be 19 73 97 3c
       -0.038020708 -0.008068215 -0.31746128 0.0184875
000370 bd 04 82 be 63 91 ec 3d 74 c1 26 bf 55 1d 1b 3e
       -0.2539424 0.11551168 -0.65138936 0.15147908
000380 da 55 64 3e d6 50 83 bc 67 5d 30 3d 9a 2c 71 bd
       0.22298375 -0.016029757 0.043057825 -0.058880426
000390 6e 3f 02 3f a3 20 d6 bd 06 cd f6 3e fb b3 d4 be
       0.50878036 -0.10455444 0.48203295 -0.41543564
0003a0 49 25 f8 bd 33 a6 e7 3e f3 3d 05 be b2 8a 80 3e
       -0.121164866 0.45243987 -0.13011913 0.25105816
0003b0 25 01 5a be 92 d1 31 3f b8 89 07 be 9d ad ce bd
       -0.21289499 0.69460404 -0.1323613 -0.10091708
0003c0 0f 58 d0 3e d9 eb 8e 3e ec 35 61 3e 69 cb 3f 3e
       0.40692183 0.27914312 0.21993226 0.18729939
0003d0 d3 9f 9f be 30 f7 16 3f 12 89 9e 3e ad ae 00 be
       -0.31176624 0.5897093 0.3096395 -0.12566634
0003e0 78 15 63 3e f6 96 17 be f3 00 f5 be f0 16 64 3f
       0.22176158 -0.14803681 -0.47852287 0.890975
0003f0 35 2e 1a be dc 77 31 3e 32 15 5d bd 4f 2f 98 be
       -0.15056689 0.17330879 -0.05397529 -0.29723594

batchnorm4.weight f4 [32]
000000 08 6c 21 40 0d 66 dc 3f 98 9b 21 40 27 3c fa 3f
       2.5222187 1.7218643 2.5251217 1.9549607
000010 62 06 15 40 c2 0d 4a 40 bf 99 2a 40 58 7a 75 40
       2.3285146 3.1570897 2.665634 3.8355923
000020 68 a6 10 40 11 b0 29 40 cb b7 0d 40 87 ac 17 40
       2.2601566 2.6513712 2.2143428 2.3699052
000030 4d fa 8a 40 f5 f7 31 40 41 b1 13 40 10 6a 12 40
       4.3430543 2.780759 2.3076937 2.2877235
000040 5c ad 2d 40 6d 65 05 40 b5 67 2a 40 9a 7f 82 40
       2.713706 2.0843155 2.6625798 4.0780764
000050 54 84 6a 40 1b 11 7a 40 3c 67 0d 40 8e 10 2d 40
       3.6643267 3.907294 2.209426 2.7041354
000060 6f 16 33 40 2f a3 e2 3f 91 8a 45 40 25 70 4b 40
       2.7982442 1.770605 3.0865824 3.1787198
000070 bd 67 4c 40 86 6d 3d 40 46 ed cf 3f ec 68 b4 3f
       3.1938317 2.9598098 1.6244285 1.409452

batchnorm4.bias f4 [32]
000000 3c 69 1e bf 88 e3 bf be d0 e3 9b bf 78 95 28 bf
       -0.61879325 -0.3747828 -1.2178898 -0.6585307
000010 19 ac 89 bf 66 c4 cb be c5 15 6d c0 2b 4b a8 bf
       -1.0755645 -0.39798278 -3.7044537 -1.314794
000020 bd 27 76 bf 58 0c 9c be 48 11 5d bf 38 3d 43 bf
       -0.96154386 -0.30478168 -0.86354494 -0.7626529
000030 0b 97 c9 bf cc 8b 91 bf d7 cf 6a bf 02 95 66 bf
       -1.574922 -1.1370788 -0.9172339 -0.9007112
000040 fc 83 5c bf 40 9e 52 bf 35 5a 57 bf d4 fd ad bf
       -0.8613889 -0.8227272 -0.8412202 -1.3593087
000050 1b bc 12 bf bb 25 8f 3c 4f 0c 64 bf 67 f4 6d bf
       -0.57318276 0.017474046 -0.8908128 -0.92951053
000060 7c de 71 bf d9 88 61 bf 46 d6 b1 bf e7 04 71 bf
       -0.9448011 -0.8809944 -1.3893516 -0.94148105
000070 da 16 6b bf 61 02 3f bf 0b e1 cd be 3f a6 1c bf
       -0.91831744 -0.74613005 -0.40210757 -0.6119117

batchnorm4.running_mean f4 [32]
000000 2a 1d a0 bf c1 d9 0d bf 07 b6 19 bb 2f c4 f8 bb
       -1.25089 -0.5541039 -0.0023454444 -0.0075917463
000010 d2 3e c8 3e 6a f8 c2 be e7 be c7 bc ac 38 4c 3f
       0.39110428 -0.3808015 -0.024383022 0.79773974
000020 ab 67 23 40 7e 79 14 c0 4a 0d 52 bc ac d9 bb bc
       2.5532024 -2.3199153 -0.012820551 -0.022930942
000030 a7 06 b8 be 14 86 9d bd 55 5f c6 be 3f 25 44 be
       -0.35942575 -0.07691589 -0.38744608 -0.19154833
000040 78 e8 18 be 92 4d 7f be b0 ce d7 bd c7 d5 08 be
       -0.1493243 -0.24931934 -0.105374694 -0.133628
000050 df 0b 5d 3e e8 c2 cb 3d cf fe 08 bc 96 a5 48 bf
       0.2158656 0.09949285 -0.008361532 -0.78377664
000060 53 95 10 bf d7 2c bb 3d c2 b8 9f be 76 24 83 be
       -0.5647785 0.09139412 -0.31195647 -0.25613755
000070 01 27 1b bf dc 16 8b bf 67 c0 ec bd 4f e6 48 bd
       -0.6060639 -1.0866351 -0.11560135 -0.049047764

batchnorm4.running_var f4 [32]
000000 b1 53 ae 40 7d 24 8c 40 9f 22 4b 3e 8e 50 65 3e
       5.447716 4.379454 0.19837426 0.2239401
000010 26 59 bb 3f 49 0a b1 3f 8b a5 9b 3f 1a de 13 40
       1.4636581 1.3831264 1.2159895 2.310431
000020 0f ba da 41 24 21 bf 41 5a 23 ff 3c fa fd 1a 3d
       27.340849 23.891182 0.031144787 0.037839867
000030 ba 0d f6 3f 93 01 b3 3f 59 fd ec 3e 78 bb b0 3e
       1.9222939 1.3984855 0.4628704 0.34518027
000040 61 3a 63 3d e3 80 9b 3d a8 93 c7 3e 26 48 d0 3e
       0.055475596 0.075929426 0.3897984 0.40680045
000050 db d1 62 3e 24 9d 11 3e bb 52 13 40 25 39 77 40
       0.22150366 0.142201 2.3019245 3.8628628
000060 bc 34 49 40 f8 72 48 40 95 8e 8e 3e 03 01 50 3e
       3.1438437 3.1320171 0.27843156 0.20312886
000070 31 4d 69 41 54 47 9e 41 b9 55 a8 3f 0a ec 15 40
       14.581346 19.784828 1.315116 2.3425317

dense.weight f4 [3, 448]
000000 65 13 c4 bd cc 61 03 3e 4f f2 ea 3e e8 bf d6 3e
       -0.09574012 0.12830275 0.45887992 0.41943288
000010 2c ce 3c bd 77 29 0b be 25 d6 33 3e 10 b7 55 3d
       -0.04609506 -0.13590036 0.17562158 0.052176535
000020 8e ef d5 3e 22 01 f5 3e 3f a0 01 3f 81 a4 1c 3f
       0.41784328 0.47852427 0.5063514 0.61188513
000030 24 0e 26 3f 8f 68 4b 3f 65 2b a0 bd 43 30 09 3e
       0.64865327 0.7945642 -0.07820777 0.13397317
000040 12 11 89 3d 2b a3 a1 3e 0a 83 48 be 0a d1 2f be
       0.06692709 0.315698 -0.19581237 -0.17169586
000050 14 ec 8d 3e 31 9c a1 3e 3c 71 69 3e fd 0f 10 3e
       0.27719176 0.31564477 0.22797102 0.14068599
000060 e4 91 5b bf f4 88 32 bf f3 43 23 3d a1 03 f7 3d
       -0.85769486 -0.69740224 0.039859723 0.12061239
000070 7d ea a8 3d cc 9f e8 3d d5 f9 f3 bd ab 92 83 be
       0.0824785 0.11358604 -0.11912886 -0.25697836
000080 3f 41 d8 be ae 1a 3a be bc cb 74 be bb 3e 7b be
       -0.4223728 -0.1817424 -0.23905843 -0.24535649
000090 ae f1 8f be 70 2a 8f be ec 46 53 be 9d 50 e9 bd
       -0.28114074 -0.27962065 -0.20632523 -0.11392329
0000a0 d1 fc b0 bd d9 45 76 be a1 b2 bc be 85 08 16 be
       -0.08641971 -0.24050082 -0.36855033 -0.14651687
0000b0 9f a7 0a be 03 cf 2f 3c a1 9e 4b bf a9 b1 6c bf
       -0.13540505 0.010730508 -0.79538924 -0.9245859
0000c0 03 c5 b3 3e ad 69 30 3e 98 11 1c be a0 75 ff bd
       0.35111246 0.17227812 -0.15241086 -0.12473607
0000d0 32 a6 cd be 47 36 96 bd b7 40 92 3f 68 ec 2e 3f
       -0.4016586 -0.07334571 1.1425999 0.6832948
0000e0 5f 4a 24 3e ea b6 29 3c 81 09 5b bf 5e 26 45 bf
       0.16043995 0.0103585515 -0.85561377 -0.7701167
0000f0 e4 d7 a5 be 97 8b 5b be 1c f5 30 bf 07 4f 1d bf
       -0.32391274 -0.21439968 -0.6912401 -0.6144871
000100 3a c4 38 be e5 68 c3 be 70 c1 a4 be c8 9f 9a be
       -0.18043604 -0.38165966 -0.3217883 -0.30200028
000110 61 e0 00 bf 36 25 ea be 4e 29 d8 3d 6f 79 63 3d
       -0.50342375 -0.45731515 0.10554753 0.05553573
000120 c9 c5 65 3f cc 3d 82 3f fa fd 48 3e a1 e6 33 3e
       0.8975492 1.0175109 0.19628134 0.17568447
000130 be f9 73 3e 94 63 94 3e df 3c 8e 3e 58 2c e9 3d
       0.23825738 0.28982222 0.27780816 0.11385411
000140 1d 14 08 3f cb fb fa 3e b2 5f e5 3e 74 51 3d 3f
       0.5315569 0.49020228 0.44799572 0.7395241
000150 91 cf c6 bd 17 bc f6 bc 5b 2d 09 bf 1c 3c 30 bf
       -0.09707559 -0.030118985 -0.5358483 -0.6884172
000160 a7 06 04 bf ea e5 09 bf 7b a7 27 be d8 3b 67 be
       -0.5157265 -0.53866446 -0.16372482 -0.22581422
000170 df 28 42 3e 3b 44 9e 3e 9e 9a 1f 3e 47 32 40 3e
       0.18960904 0.3091143 0.15586326 0.1876918
000180 f3 45 a3 3e 57 3d 9d 3e 85 b8 02 bf 5e 92 df be
       0.31889305 0.3071086 -0.51062804 -0.43666357
000190 1b 74 9e be 3d 43 02 be d1 8d ec bd c3 3f ac bd
       -0.30947956 -0.12720962 -0.11550487 -0.08410599
0001a0 5b d7 dd be ed 37 a6 be 46 d0 28 be e7 7e 05 be
       -0.43328366 -0.32464543 -0.164857 -0.1303669
0001b0 f1 58 db be 02 a0 ec be 2d bd 68 be 55 1e 72 be
       -0.42841294 -0.46215826 -0.22728415 -0.23644383
0001c0 15 2d 9c be 5c e2 9e be 1f dd 10 bf fa 3a 8b be
       -0.30503145 -0.31032073 -0.56587404 -0.27193433
0001d0 27 34 90 be 77 9f af be 8a b4 92 be 67 51 e9 be
       -0.2816479 -0.3430135 -0.28653365 -0.45569918
0001e0 6c 67 80 be a6 ae 7b be ef cd 19 bd 7d 1e 3c bc
       -0.25078905 -0.24578342 -0.03754991 -0.011481878
0001f0 ac d3 7f bf 06 c1 49 bf 0c 9e d6 3d 97 32 52 bd
       -0.9993236 -0.78810155 0.10479364 -0.051317777
000200 9a 0b 0e 3f 67 e2 25 3f e7 58 10 3f 11 78 1b 3f
       0.5548645 0.6479859 0.56385654 0.6073008
000210 e7 6a 1e 3b bd 5e e6 bd 19 30 be 3e 7d 60 ee 3e
       0.0024172605 -0.11248539 0.3714607 0.4655799
000220 54 9c f2 3e 0f 71 33 3f aa d2 f0 3e 7c 0e d3 3e
       0.47384894 0.7009439 0.47035724 0.41221988
000230 d1 a1 ee bc c6 bc b8 bc 40 3b c9 be 06 c9 10 bf
       -0.029129894 -0.022550952 -0.39303017 -0.5655674
000240 72 72 9c be fd 86 ac be a1 5d a3 be b9 dd d2 be
       -0.30556065 -0.33696738 -0.3190737 -0.41184786
000250 25 29 82 be df d4 42 be 46 dd ac bd ba a8 d0 bd
       -0.25422016 -0.19026516 -0.08440642 -0.10188432
000260 e0 4c 4e 3e 03 45 58 3d 73 5e 5f bd c6 ed 04 be
       0.20146513 0.05280019 -0.054533433 -0.12981328
000270 7f d1 7a bd a6 31 69 bc d9 47 95 be e9 0b 34 be
       -0.061234947 -0.0142330285 -0.29156378 -0.17582668
000280 8f 14 88 bf 07 7a 8d bf fc e6 24 be 35 a3 4c be
       -1.0631274 -1.1052865 -0.16103739 -0.19984134
000290 6b ab 8e 3d 2b 5a a6 3d e0 cb 4c be 8c e5 57 be
       0.06966289 0.08122667 -0.19999647 -0.21083659
0002a0 e7 26 93 3f 88 1b a4 3f aa 76 ce 3e b3 f2 f5 3e
       1.1496247 1.2820902 0.40324908 0.48036727
0002b0 aa a1 2e 3e 0a 9e 56 3d 83 1f 46 3e 69 3f 40 3e
       0.17053857 0.05239681 0.19347958 0.18774189
0002c0 27 57 87 3e 57 1a d3 3e 88 3b 21 be a2 84 1f be
       0.2643368 0.41231033 -0.15745366 -0.15577939
0002d0 50 7d 6c 3d c2 93 6d bd 28 4c 3a bf 49 c0 47 bf
       0.057736695 -0.05800224 -0.72772455 -0.7802778
0002e0 ea 6d 14 3f 41 36 16 3f e9 00 57 3e aa 3f f7 3d
       0.57980216 0.58676535 0.20996441 0.1207269
0002f0 8f 09 f4 bc aa 09 81 be 01 8b 87 3e 5f fd 4a 3e
       -0.029789714 -0.25202686 0.2647324 0.19823216
000300 47 a0 c3 be 3d 5e 5e be 32 5a e1 bd e5 6b 15 be
       -0.3820822 -0.21715637 -0.110035315 -0.1459194
000310 61 74 b9 be 85 f9 95 bd ce a0 ed bf b1 a9 89 bf
       -0.36221603 -0.07322983 -1.8564699 -1.0754911
000320 64 ff 2d 3e ca d5 74 bd a5 32 86 be a1 dd 0d 3d
       0.16991955 -0.059774198 -0.26210514 0.03463519
000330 93 12 f9 ba 7a 33 54 3d e4 57 84 be f3 d7 a8 be
       -0.0019002728 0.051806904 -0.25848305 -0.32977256
000340 5b d9 67 3e 5b 3c 1e 3e 49 79 c0 be 27 b9 26 bd
       0.22641508 0.15452711 -0.37592533 -0.04070392
000350 6b 0f 7b bd f6 11 18 be 1e 46 17 3f f3 ce 19 3e
       -0.061294 -0.14850602 0.59091365 0.15020351
000360 ca 6f a9 bf 8a 06 56 bf 7d 27 31 be 6a 9a fc be
       -1.323724 -0.8360373 -0.1730022 -0.4933656
000370 4b 3d ba 3e 03 0c 95 3e b9 d1 95 be 59 1f 95 bd
       0.36374888 0.29110727 -0.29261568 -0.0728137
000380 5e 90 7b be 25 13 23 be 79 35 90 bd 44 9c ac bd
       -0.2456679 -0.15925272 -0.07041449 -0.08428243
000390 ec c2 e2 be fc e0 f6 bd 7a 90 91 3d df 11 de 3c
       -0.4428934 -0.12054631 0.07107635 0.027108131
0003a0 80 82 47 bf 84 97 c6 be 90 53 9a bf ee 48 e8 be
       -0.779335 -0.38787472 -1.2056751 -0.4536814
0003b0 93 29 96 3e c1 ed 8f 3e eb 15 1d be 4f 41 e2 be
       0.29328594 0.2811108 -0.15340392 -0.44190452
0003c0 e9 11 ea be d6 84 cd be 96 1b 23 bf b1 60 1c bf
       -0.4571679 -0.40140408 -0.6371397 -0.6108504
0003d0 1e b9 61 3e a5 7d df 3e fa db 2c bc 75 17 a7 bd
       0.22043273 0.43650547 -0.010550493 -0.08158771
0003e0 99 85 56 bf 7f 38 84 bf 2e 8a 30 3e fa 34 c7 be
       -0.83797604 -1.0329741 0.17240211 -0.38907605
0003f0 db fd 0a 3f 32 dc f0 3e 83 0e 0c 3f 72 49 e0 3e
       0.542936 0.47042996 0.54709643 0.43806034

dense.bias f4 [3]
000000 10 e2 b2 be 97 1d 04 3f c5 49 73 3e
       -0.34938097 0.5160765 0.2375861
